cours/TP/tp2/checkpoints/best_dungeon_model.pt (torch, 23605 bytes, 31 tensors)

weight f4 [45, 3]
0	0x00000000	0.0
1	0x00000000	0.0
2	0x00000000	0.0
3	0x3ed0a949	0.40754154
4	0x3f6b2b0a	0.9186255
5	0x3e4dfa7b	0.20115082
6	0xc087f6d4	-4.2488804
7	0xc020e303	-2.5138557
8	0xbf9ad8dc	-1.209743
9	0xc02ec1e9	-2.7305853
10	0x3fc85767	1.5651673
11	0xbe8f370f	-0.27971694
12	0x3fea5063	1.8305782
13	0x3eb87556	0.3602702
14	0x3e1f0c00	0.15531921
15	0xc079bcf3	-3.9021575
16	0x3fbb2873	1.4621719
17	0xbff7a510	-1.9347248
18	0xbfe7b8f0	-1.8103313
19	0x3f651618	0.8948684
20	0x3ecf2ee5	0.40465465
21	0x3fc29443	1.5201496
22	0xbf871818	-1.0554228
23	0x3ff1a560	1.8878593
24	0x3f922c59	1.1419784
25	0xbf1bfbfa	-0.6093136
26	0x3fba7673	1.4567398
27	0x3fd18520	1.6368752
28	0xbf6bb3b9	-0.9207111
29	0x3fd4b4f1	1.6617719
30	0x3fd7a638	1.6847601
31	0xbf8371de	-1.0269125
32	0xbf17375f	-0.59068865
33	0xbee9d4d2	-0.45670182
34	0xc046a76e	-3.103969
35	0xbfe0622b	-1.7529958
36	0xbfaf04cd	-1.367334
37	0xbfe03518	-1.7516203
38	0xc0ab69be	-5.356658
39	0xbec2a65e	-0.38017553
40	0x4043f353	3.0617263
41	0x3e1b0a49	0.15140642
42	0x3f01afcf	0.5065889
43	0x3f9d8212	1.2305319
44	0x3f85afe9	1.0444309
45	0x3fbdca8d	1.4827439
46	0xbf95c001	-1.169922
47	0x3feaf98c	1.8357406
48	0xbf47eec2	-0.7809869
49	0x3f7c1928	0.98475885
50	0x3f6b16f1	0.9183188
51	0x3e8150b9	0.252569
52	0xbf085893	-0.53260154
53	0xbf855f5f	-1.041973
54	0xc03a1cdc	-2.9080114
55	0x3f685e85	0.90769225
56	0x3f6736e1	0.90318114
57	0x3f7a038e	0.97661674
58	0xbd0329ee	-0.03202241
59	0xbe247bb1	-0.1606281
60	0xbe5401cc	-0.2070381
61	0x3ecd8152	0.40137726
62	0xbf8bfb4b	-1.0936064
63	0x3f9fca76	1.2483661
64	0xbde8fd6e	-0.11376463
65	0x3fe7c7a2	1.8107798
66	0x3ff5c047	1.9199303
67	0x3d97c151	0.07409919
68	0x3e52b4d4	0.20576793
69	0xc02da3a5	-2.713113
70	0x3faf703a	1.3706124
71	0x3f6b0102	0.9179841
72	0x3fe47497	1.784808
73	0xbf24f4ca	-0.6443602
74	0xbc8571cd	-0.016289616
75	0x3fc134d3	1.5094246
76	0xbf84f83f	-1.0388259
77	0x3fc39a1c	1.5281405
78	0x3f3ea81d	0.7447527
79	0x3fb381c8	1.4023981
80	0x40939b35	4.612696
81	0xbb888ea0	-0.004167393
82	0xbf45f08c	-0.7732017
83	0xbf29a9d1	-0.66274744
84	0xbd14b27a	-0.03630302
85	0x3f3c115a	0.73463976
86	0xc01fc92c	-2.4966536
87	0xbd5a22e9	-0.05325595
88	0xc067fa1b	-3.6246402
89	0x3ff40cf1	1.9066449
90	0x3fcd75d8	1.6051588
91	0xbf304339	-0.68852574
92	0x3fe4a3f8	1.7862539
93	0x3fa91305	1.3208929
94	0x3ee32e99	0.4437149
95	0xbfa413f6	-1.2818592
96	0x3f67dd1d	0.9057177
97	0x3f4ebce0	0.8075695
98	0xbf3adf36	-0.7299684
99	0xbfaacd15	-1.3343836
100	0x3fbe1e71	1.485304
101	0x3f9c5d41	1.2215959
102	0x40488570	3.1331444
103	0x3d1a2dcd	0.037641335
104	0xbf0c1615	-0.54721195
105	0x3fabfbb3	1.3436188
106	0x3ec3b819	0.38226393
107	0x3f9b0251	1.2110082
108	0xbf151a11	-0.582429
109	0x3f520677	0.82041115
110	0x3fae8641	1.3634721
111	0xbe3e86e9	-0.18606152
112	0x3e5e774c	0.21725196
113	0xbfe40484	-1.7813878
114	0x3f9994cb	1.1998533
115	0xbf874b8d	-1.0569931
116	0x3feb7e15	1.8397852
117	0xbfec7544	-1.8473287
118	0x401d531b	2.4581974
119	0xbdcde8e8	-0.10054189
120	0x3e2f4153	0.17114763
121	0xbecb0146	-0.3964941
122	0xbf10f7ed	-0.56628305
123	0x3f8c5ba1	1.0965463
124	0x3e06b951	0.1315663
125	0xbeae74b9	-0.34073427
126	0x3fa2779b	1.2692751
127	0x3de13312	0.10996069
128	0x3fddecb2	1.7337859
129	0xb91d054b	-0.00014974659
130	0x3f704fc4	0.9387171
131	0xbff14ff0	-1.885252
132	0x3ed71902	0.42011267
133	0xbf743e22	-0.9540731
134	0xbe30e800	-0.17276001

weight f4 [4, 420]
0	0x3ccc5c5e	0.024946388
1	0x3b96e252	0.004604616
2	0xbd0c09c3	-0.034188997
3	0xbcfe0be2	-0.031011526
4	0xbd266d7f	-0.040631767
5	0x3cea0090	0.028564721
6	0x3b54b23f	0.0032454876
7	0xbc964255	-0.018342176
8	0x3cd2662b	0.025683483
9	0xbd2f5fb6	-0.042815886
10	0xbbf5bf02	-0.0074995765
11	0x3cade3d7	0.021226807
12	0xbd164419	-0.036686037
13	0x3d230d7a	0.039807774
14	0x3d080e07	0.033216503
15	0x3c3a73c3	0.011380139
16	0x3be46090	0.006969519
17	0x3c9aa6da	0.01887839
18	0xbc92bdbc	-0.017912738
19	0xbd436187	-0.04770043
20	0xbc85faca	-0.016354937
21	0xbca8ccf4	-0.020605542
22	0xbd1b6ca3	-0.0379454
23	0x3d18e4f3	0.037327718
24	0xbcca9f7b	-0.02473425
25	0xbd0f67d4	-0.035011128
26	0x3ce64f90	0.02811411
27	0x3c5573c5	0.01302809
28	0xbc518b40	-0.012789547
29	0x3d21ab2c	0.039469883
30	0x3d008a31	0.03138179
31	0xbd1c9b3e	-0.038233988
32	0x3af5b8c3	0.001874708
33	0x3c8839bd	0.016629094
34	0xbcfe7980	-0.031063795
35	0x3d039dd7	0.03213295
36	0x3c5f7ee0	0.013641089
37	0x3c39a90b	0.011331807
38	0x3be06123	0.006847517
39	0xbcc9ed5e	-0.024649318
40	0xbc4f1d8e	-0.012641324
41	0xbd1e3719	-0.038626764
42	0xbd4469d8	-0.047952503
43	0xbce1c3d4	-0.027559198
44	0x3d1a0b0f	0.037608203
45	0x3cf94ebb	0.03043305
46	0xbd3844af	-0.044987377
47	0x3d01a542	0.031651743
48	0xbb77f6e2	-0.0037836363
49	0xbc311cd4	-0.010810096
50	0xbc9a15b0	-0.01880917
51	0xbd165a40	-0.036707163
52	0xbcea04a7	-0.028566672
53	0xbd1c55ca	-0.038167752
54	0x3d0d455b	0.03448997
55	0xbc9e9ee9	-0.019362884
56	0x3d029bd3	0.031886887
57	0x3c8b162a	0.016978342
58	0x3d0fa39c	0.03506814
59	0xbd47c419	-0.048770998
60	0xbb3c72a5	-0.0028754857
61	0xbc355552	-0.011067705
62	0x3d241892	0.040062495
63	0xbd1cd6ad	-0.03829067
64	0xbc2d5e7f	-0.010581612
65	0x3cc969e0	0.024586618
66	0x3be2f0a6	0.00692566
67	0x3d33e9e9	0.043924246
68	0xbc338c04	-0.010958675
69	0x3cdd1640	0.026988149
70	0xbcc136b7	-0.02358566
71	0xbd141ed3	-0.03616221
72	0xbb4c0d1a	-0.0031135739
73	0xbc0872bc	-0.008328136
74	0xbd2304ad	-0.03979938
75	0xbd12377f	-0.035697456
76	0x3d044dff	0.032300945
77	0x3ba7c3ff	0.0051198
78	0xbd1237f7	-0.035697903
79	0xbc3f67eb	-0.011682491
80	0xbce080f3	-0.027405238
81	0x3cca0840	0.024662137
82	0x3c1191ea	0.008884886
83	0x3ce9d123	0.028542107
84	0x3d241aae	0.040064506
85	0x3bfe5ddc	0.0077626538
86	0xbb7c77d0	-0.0038523562
87	0xbcd2c2e7	-0.025727702
88	0xbcc73693	-0.024318015
89	0x3d0813cd	0.03322201
90	0xbc0b399a	-0.00849762
91	0x3ccd8246	0.025086533
92	0xbcbaa7c3	-0.022785073
93	0x3d01132a	0.031512417
94	0x3c2e7630	0.010648295
95	0x3d13a0a5	0.036041874
96	0xbd33ac17	-0.04386529
97	0xbd1a12f6	-0.03761574
98	0x3c8d1dd2	0.017226133
99	0x3cd66270	0.026169986
100	0x3cc62090	0.024185449
101	0xbca1e147	-0.01976074
102	0x3c886d32	0.01665363
103	0xbcc5ac59	-0.024130033
104	0xbcff468a	-0.031161565
105	0xbd004ee3	-0.031325232
106	0xbd09f1b8	-0.033677787
107	0x3cb3fbde	0.021970686
108	0xbc7d7cde	-0.015471665
109	0xbcd9dab0	-0.026593536
110	0x3bd8c963	0.006615804
111	0x3c314999	0.01082077
112	0x3ca2c17b	0.01986765
113	0xbcc0dc20	-0.023542464
114	0xbc8cb418	-0.01717572
115	0x3c67c54f	0.014146163
116	0xbb855f3b	-0.0040701902
117	0x3d450894	0.048103884
118	0x3cc0948b	0.02350833
119	0x3d1af61e	0.037832372
120	0x3d031fdc	0.032012805
121	0x3cf6f116	0.030144256
122	0x3cb63b38	0.022245035
123	0x3d0f7e90	0.03503281
124	0x3d0c5462	0.03426016
125	0x3bf8aa5a	0.007588667
126	0x3d3e62b3	0.046480846
127	0xbd41fb0e	-0.047358565
128	0x3c7c2ef0	0.01539205
129	0xbd226fdc	-0.03965746
130	0xbcdb6a8a	-0.0267842
131	0xbd2b4e31	-0.041822616
132	0x3c8e6461	0.017381849
133	0xbba937e9	-0.0051641357
134	0xbd0c8713	-0.034308504
135	0x3cbc5c07	0.0229931
136	0x3b46008b	0.0030212726
137	0x3cf04fb4	0.02933488
138	0x3b55d817	0.003263002
139	0x3c779ce8	0.015113093
140	0xbd2bf764	-0.041983977
141	0xbca37669	-0.019953923
142	0xbc3d18f0	-0.01154159
143	0xbb36eb33	-0.0027911186
144	0x3d1d868a	0.038458385
145	0xbb6894bd	-0.0035489046
146	0xbd1e2fb0	-0.038619697
147	0xbcc2fd85	-0.023802528
148	0x3d22413f	0.039613005
149	0x3b7627a0	0.003756024
150	0x3ce8fdc1	0.028441312
151	0xbd1b76d2	-0.037955113
152	0xbd2f286b	-0.042763155
153	0xbb6df9d5	-0.0036312242
154	0xbd09c7c4	-0.033637777
155	0x3d332a3e	0.043741457
156	0xbd14f03f	-0.03636193
157	0x3c092d15	0.008372565
158	0x3c853f20	0.016265452
159	0x3d3ab1eb	0.045579832
160	0x3d179931	0.03701133
161	0x3a76e269	0.0009417893
162	0xbc98cad2	-0.0186514
163	0x3d262f63	0.040572535
164	0x39aa53ff	0.0003248751
165	0xbcc23560	-0.023707092
166	0xbc637340	-0.013882458
167	0xbc6df570	-0.014523849
168	0xbcc646a9	-0.024203615
169	0x3ca25369	0.019815164
170	0xbbe7c3fe	-0.0070729246
171	0xbd1fba56	-0.038996063
172	0xbaf92105	-0.0019007033
173	0x3c15c04f	0.009140088
174	0x3d420ea7	0.047377255
175	0xbb37f0a4	-0.0028067017
176	0x3cc4ec70	0.024038523
177	0x3c79333f	0.015209972
178	0x3c10ee74	0.008845914
179	0x3cd9498c	0.026524328
180	0xbd3dd130	-0.046342075
181	0xba5bcf2e	-0.0008385059
182	0xbccdc389	-0.025117652
183	0xbcc43c17	-0.023954434
184	0xbd44cfa9	-0.048049603
185	0x3c862598	0.016375348
186	0x3cfd41d6	0.030915182
187	0xbcdb6064	-0.026779361
188	0x3d3f51ae	0.046708755
189	0xbd470304	-0.04858686
190	0xbbfbb2bb	-0.0076812184
191	0x3c31371b	0.010816361
192	0x3c6b9fcc	0.01438136
193	0x3d404855	0.04694398
194	0xbcf7c477	-0.030245049
195	0x3c455ae8	0.0120455995
196	0xbb83b1c9	-0.0040189964
197	0xbd21e31f	-0.03952324
198	0x3d2e5a1d	0.042566407
199	0xbd34994a	-0.0440915
200	0xbc2092be	-0.009800611
201	0xbcb6cdef	-0.022314994
202	0xbc2b9e18	-0.010474704
203	0xbcb2d786	-0.021831285
204	0x3b9dcb17	0.00481547
205	0xbb0f0bf8	-0.0021827202
206	0x3ae614d7	0.0017553818
207	0xbc911726	-0.017711233
208	0xbb157b7b	-0.0022809196
209	0x3cf8fd86	0.030394327
210	0x3bf7f384	0.007566871
211	0x3c97fe52	0.018553887
212	0x3bb8b8ff	0.0056372876
213	0x3c4eacbd	0.012614426
214	0x3c1b4488	0.009476788
215	0xbb82eaa7	-0.003995258
216	0xbd44948e	-0.047993235
217	0x3cee69b8	0.029103145
218	0xbd29569e	-0.04134237
219	0xbd3cbde1	-0.04607952
220	0x3ce49239	0.027901756
221	0xbd3d4851	-0.046211544
222	0x3b53ca91	0.0032316784
223	0xbb947db3	-0.004531586
224	0xbd04de47	-0.032438543
225	0xbd21d3b7	-0.039508548
226	0x3d131b39	0.035914633
227	0x3c9092f6	0.017648201
228	0xbc7fc129	-0.015610018
229	0x3d346d71	0.044049684
230	0x3c23d435	0.009999325
231	0x3ca22f34	0.019797899
232	0x3d20479c	0.039130792
233	0xbd400b8f	-0.046886023
234	0x3c20b43d	0.009808597
235	0xbca2372c	-0.019801699
236	0xbc39dec4	-0.011344615
237	0x3cbdf690	0.02318886
238	0x3ceb01d3	0.028687393
239	0xbcb8ee73	-0.022574639
240	0xbd3763e8	-0.044773012
241	0xbcf22fd6	-0.029563826
242	0x3c231846	0.009954518
243	0xbcd6f70b	-0.026240846
244	0x3d140b94	0.036143854
245	0xbcd53750	-0.026027352
246	0x3cfb2968	0.030659392
247	0x3cb62ce9	0.022238212
248	0x3d3ab6ef	0.045584615
249	0x3ccaf6f2	0.024775956
250	0xbd393b26	-0.045222424
251	0xbc64f4e6	-0.013974404
252	0xbd115879	-0.035484765
253	0x3ce2d38b	0.027688762
254	0xbc3186aa	-0.010835329
255	0x3c6285e9	0.013825872

bias f4 [4]
0	0xbd3f50fe	-0.0467081
1	0xbd24dbe4	-0.040248767
2	0xbc073927	-0.008253372
3	0xbcc75c93	-0.024336135

weight f4 [4, 4]
0	0x3ecbc698	0.39799953
1	0x3df22cd0	0.118249536
2	0x3e848a14	0.25886595
3	0xbe9f13e8	-0.31069875
4	0x3e059c30	0.13047862
5	0x3ee83d1a	0.45359117
6	0x3e97bf4a	0.2963813
7	0x3e3eed54	0.18645221
8	0x3e22fd90	0.15917039
9	0xbed2f190	-0.41199923
10	0x3d17cc70	0.0370602
11	0xbddafb68	-0.10692483
12	0xbe94371a	-0.2894829
13	0x3a8bb800	0.0010659695
14	0x3d81e660	0.06342769
15	0xbeb57a00	-0.3544464

bias f4 [4]
0	0x3ea538aa	0.32269794
1	0x3e32d96c	0.17465752
2	0xbe165b8c	-0.1468336
3	0xbe87a440	-0.264925

weight f4 [1, 4]
0	0x3ebcdd0a	0.3688739
1	0x3e2be77c	0.16787523
2	0xbeb5d5da	-0.35514718
3	0x3eff1168	0.49817967

weight_ih_l0 f4 [16, 3]
0	0xc0329b5f	-2.790733
1	0xbf8759cc	-1.0574279
2	0xbf48bbbd	-0.78411466
3	0xbf0c2907	-0.547501
4	0xbf6b9a2d	-0.9203213
5	0xbf36d721	-0.7142201
6	0x3f15f33c	0.5857427
7	0xbfd72e1d	-1.6810948
8	0x3d8dc63f	0.06922578
9	0xbe56727d	-0.20942111
10	0x40045bbc	2.068099
11	0xc01cffdf	-2.4531171
12	0x3dad93d8	0.084754646
13	0x3ade428d	0.001695709
14	0x3f814281	1.009842
15	0xbeb95237	-0.36195537
16	0xbf003aca	-0.50089705
17	0xbe544896	-0.20730814
18	0x401e1c9c	2.4704962
19	0xbeceda42	-0.40400892
20	0xbf68d401	-0.9094849
21	0x4056dd96	3.3572745
22	0xbf8bec92	-1.093157
23	0xbe86c275	-0.26320234
24	0x3e0efcb4	0.13963586
25	0xbdc4c36b	-0.096075855
26	0x40401d71	3.001797
27	0xc03190fc	-2.7744741
28	0xbf0a04c8	-0.53913546
29	0xbee167f2	-0.44024616
30	0x3e9aaa83	0.30208215
31	0x3fe491da	1.785701
32	0x3e8a2011	0.2697759
33	0xbfbe2dab	-1.4857687
34	0x3f1c26a7	0.6099648
35	0x3fcf51b8	1.6196814
36	0xbf5eae74	-0.86984944
37	0x3f0421d9	0.5161415
38	0x3fce4014	1.6113305
39	0x3f24d81f	0.64392275
40	0xbf75d16c	-0.9602268
41	0xbf915116	-1.135287
42	0x3f88039c	1.0626101
43	0xbfe2c574	-1.7716508
44	0xbee5f065	-0.4490997
45	0x3ebb6174	0.36597788
46	0xbec568bc	-0.38556468
47	0xbec7a508	-0.38993096

weight_hh_l0 f4 [16, 4]
0	0x3e6191ed	0.22028323
1	0xbf034f9c	-0.5129335
2	0x3f70ca5f	0.94058794
3	0xbede0480	-0.43362808
4	0xbf8d1660	-1.1022453
5	0xbd4fdd03	-0.050747883
6	0x3f633d7e	0.88765705
7	0x3db86575	0.090037264
8	0x3ea80f5b	0.32824215
9	0xbeb8065c	-0.35942352
10	0x3eadbe25	0.3393413
11	0xbe93bd6f	-0.28855464
12	0x3db97bdf	0.0905683
13	0xbd846cf7	-0.06466096
14	0xbf2f55b5	-0.68490154
15	0xbfa6fb89	-1.3045512
16	0xbfde76bd	-1.7379986
17	0x3f1e4757	0.61827606
18	0xbef202da	-0.472678
19	0x3f2507de	0.6446513
20	0xbe9f74ef	-0.311439
21	0x3ec02421	0.37527564
22	0xbe89d184	-0.2691766
23	0x3ea219f2	0.3166042
24	0xbe243272	-0.16034868
25	0x3f057103	0.5212557
26	0xbf76be0d	-0.96383744
27	0x3daebee8	0.08532506
28	0xbe21d780	-0.15804863
29	0xbda9e158	-0.08294934
30	0x3f18d895	0.5970548
31	0xbf3999fb	-0.7250058
32	0xbe1356e5	-0.14388616
33	0xbeb7b044	-0.35876667
34	0x3f178dc1	0.59200674
35	0x3f998767	1.1994447
36	0x3e7fd3cf	0.24983142
37	0x3e7e896a	0.24857107
38	0xbd205bf1	-0.039150182
39	0xbf81c574	-1.0138383
40	0xbe01dd15	-0.12681992
41	0xbfb0cf01	-1.3813173
42	0x3fd104bb	1.6329569
43	0x3fc405f8	1.5314322
44	0x3f5c4ada	0.86051714
45	0xbf07902e	-0.52954376
46	0x3e32c846	0.17459211
47	0x3f19addb	0.6003091
48	0xbea5777b	-0.3231772
49	0xbed97a0c	-0.42475927
50	0x3ea6fd24	0.32615006
51	0x3ed0cce3	0.40781316
52	0x3e90117d	0.28138342
53	0xbed32d9c	-0.41245735
54	0x3e499498	0.1968559
55	0xbe80b674	-0.251392
56	0x3e577e2f	0.21044229
57	0xbda51568	-0.080607235
58	0xbf2ca293	-0.6743557
59	0x3f3773d0	0.7166109
60	0xbd750dd9	-0.05982766
61	0xbf195c03	-0.59906024
62	0xbe7bbd0d	-0.24583836
63	0xbfd5d8e1	-1.6706811

bias_ih_l0 f4 [16]
0	0xbf362440	-0.71149063
1	0x3f5d7fac	0.86522937
2	0xc014d078	-2.325224
3	0x3fc5b508	1.5445871
4	0x3ec384e8	0.38187337
5	0x3ef74f61	0.4830275
6	0x3cd725f7	0.02626322
7	0x3f711a37	0.94180626
8	0xbf203049	-0.6257368
9	0x3ed45419	0.4147041
10	0x3f26555c	0.64974
11	0xbdc0b90a	-0.094102934
12	0x3f5d88f1	0.8653708
13	0x3f03fcf1	0.5155783
14	0x3eef5479	0.46744135
15	0x3f1a2a86	0.60221136

bias_hh_l0 f4 [16]
0	0xbf025947	-0.50917476
1	0x3f907d43	1.1288227
2	0xbfcbc6e8	-1.5920076
3	0x3fbedd49	1.4911281
4	0x3eb95e52	0.36204773
5	0x3eced5b9	0.40397432
6	0xbd77993e	-0.060448878
7	0x3f60d415	0.8782361
8	0xbf67b96e	-0.9051732
9	0x3f72ada6	0.94796216
10	0x3f42ffe9	0.7617174
11	0x3e2af980	0.16696739
12	0x3f469a46	0.7757915
13	0x3f1ed8dc	0.6204965
14	0x3f153b93	0.5829403
15	0x3f97a5e8	1.1847506

weight_ih_l0_reverse f4 [16, 3]
0	0xbef9023b	-0.48634514
1	0x3fd59f91	1.6689321
2	0xbf1ca29d	-0.6118563
3	0xbf85b602	-1.0446169
4	0x3fbd1d1a	1.4774506
5	0xc010a67a	-2.260161
6	0xbfe6061c	-1.7970614
7	0xbdfdbec2	-0.123899
8	0xbfc3b85d	-1.5290638
9	0xc0132cab	-2.2996013
10	0xbcb3d590	-0.02195242
11	0xbf8774fb	-1.0582575
12	0x3f19d34f	0.60088056
13	0xbf437a2f	-0.7635831
14	0xbdaf85af	-0.0857042
15	0x3fb898f5	1.4421679
16	0xc016a684	-2.3539133
17	0x3ebe4605	0.37162796
18	0x3f5a252e	0.8521298
19	0x3fd4ccca	1.6624997
20	0x3fef9212	1.8716452
21	0x3f440f31	0.7658568
22	0xbfc3f8f9	-1.5310355
23	0xbf860cb2	-1.0472624
24	0xc01f8ad3	-2.4928482
25	0xc0115c77	-2.2712686
26	0x3fbdac2e	1.481817
27	0xc025164f	-2.5794866
28	0x3fb83599	1.4391357
29	0x405d2c1c	3.4558172
30	0x3fec2721	1.8449441
31	0xbfa5b47b	-1.2945703
32	0xbff24b3f	-1.8929213
33	0xbf4bf1af	-0.79665655
34	0x40167a4c	2.3512144
35	0x405e67ff	3.4750974
36	0x3ec89b5c	0.3918103
37	0xbf6e4da8	-0.93087244
38	0xbfe71327	-1.805272
39	0xbefcd595	-0.493817
40	0xbe061557	-0.13094078
41	0x3f6b7c1c	0.9198625
42	0xbf5a27fc	-0.8521726
43	0xbdca7061	-0.09884716
44	0xbe29418b	-0.16528909
45	0x3d2b6733	0.041846465
46	0xbe221ef2	-0.15832117
47	0x3e98a6ea	0.29814845

weight_hh_l0_reverse f4 [16, 4]
0	0x3f0061fb	0.50149506
1	0x3e7b5545	0.24544246
2	0x3f794060	0.97363853
3	0x3f17f332	0.5935546
4	0xbe3da523	-0.18520026
5	0x3f72ebcd	0.94891053
6	0x3f7504f1	0.95710665
7	0x3edac88d	0.42731133
8	0xbdd80a8a	-0.10548885
9	0xbf9f43ef	-1.2442607
10	0x3f98fd16	1.1952236
11	0x3f87b95a	1.060344
12	0xbf15e5ab	-0.5855357
13	0xbfe4c9b6	-1.7874057
14	0x3f7197b3	0.943721
15	0xbec94957	-0.39313766
16	0xbfa745be	-1.3068159
17	0x3f7d16e7	0.9886307
18	0x3fbc7d24	1.472569
19	0xbf7e0fb3	-0.99242705
20	0xbefc93c6	-0.49331492
21	0xbf5b1341	-0.85576254
22	0xbcac01b4	-0.020996906
23	0xc02e475c	-2.7231054
24	0x3fe07015	1.7534205
25	0x3fb9d6f5	1.4518725
26	0x4031ab54	2.776082
27	0x3fb49be9	1.411008
28	0xc003ac5e	-2.0573955
29	0xbe130cca	-0.14360347
30	0x40061726	2.0951629
31	0xbf94d03e	-1.162605
32	0xbf8529a2	-1.040333
33	0x3f8a1565	1.0787779
34	0xbebe118e	-0.37122768
35	0x40133ca8	2.3005772
36	0x3f99954d	1.1998688
37	0x3e463192	0.19354847
38	0x3f9915a6	1.1959732
39	0x3f846867	1.0344361
40	0x3ed69553	0.419108
41	0xc0286962	-2.631432
42	0xbd4538e6	-0.048149966
43	0xc00103be	-2.0158534
44	0x3e918bd6	0.28427
45	0x3fc49c6d	1.5360237
46	0xbdf1da71	-0.118092425
47	0xbeacd33c	-0.3375491
48	0xbc01a8a7	-0.007913745
49	0xc0178f22	-2.3681111
50	0x3e8d8f3c	0.27648342
51	0xbfa2abb1	-1.2708646
52	0xbf4d70db	-0.8025033
53	0xbf8dde88	-1.1083536
54	0xbe2201e9	-0.15821041
55	0x3e700f5e	0.23443362
56	0x3e1492ef	0.14509176
57	0x3da784f9	0.081796594
58	0x3d34be3f	0.044126745
59	0xbe72600f	-0.23669456
60	0xbf5099da	-0.8148476
61	0x3e463213	0.1935504
62	0x3eba7df0	0.36424208
63	0xbf1cc9fa	-0.6124569

bias_ih_l0_reverse f4 [16]
0	0x3e70ce60	0.23516226
1	0x3f944d38	1.1586065
2	0xc05368c7	-3.30327
3	0x3f1dca69	0.6163698
4	0x3f1cbc79	0.61225086
5	0x4014cacc	2.3248777
6	0x4019a7ee	2.4008746
7	0x3ff99993	1.9499992
8	0x3ed16f4f	0.40905234
9	0x3da13276	0.07870953
10	0xc00d3d19	-2.206854
11	0xbcf6262d	-0.0300475
12	0x3eef1cc5	0.46701637
13	0x3fe08f5c	1.754375
14	0x3fecfa9b	1.8513979
15	0x3f455635	0.77084666

bias_hh_l0_reverse f4 [16]
0	0x3eca1a89	0.3947337
1	0x3fd0b9ff	1.6306762
2	0xc03de34c	-2.966998
3	0x3ec83387	0.39101812
4	0x3fa13be8	1.2596407
5	0x401e4f34	2.4735842
6	0x401b59c4	2.4273539
7	0x3feaff21	1.8359109
8	0x3f7e7c8c	0.99408793
9	0xbd61d933	-0.055138778
10	0xbff02dd3	-1.8763984
11	0x3c91c8a4	0.017795868
12	0x3f0d05fe	0.5508727
13	0x3fe42438	1.7823553
14	0x40130386	2.29709
15	0x3fabd906	1.3425605

weight_ih_l1 f4 [16, 8]
0	0x3f065178	0.5246806
1	0x3e8f6ce7	0.28012773
2	0x3ea59397	0.32339165
3	0xbd0c2042	-0.03421045
4	0x3cbf2291	0.023331912
5	0xbf16e1a9	-0.5893808
6	0x3faf0ed0	1.3676395
7	0x3e4b9753	0.19881944
8	0x3ea09078	0.3136022
9	0x3eace9eb	0.33772215
10	0xbeb99e89	-0.36253765
11	0xbf0acc88	-0.5421834
12	0x3f81ccc4	1.0140615
13	0x3f4a92b8	0.79130125
14	0x3f0d17b4	0.55114293
15	0x3dbea18d	0.09308157
16	0x3e2852af	0.16437791
17	0x3ee6b568	0.45060277
18	0xbeeb06bc	-0.45903575
19	0xbf1f0391	-0.62114817
20	0x3ede1189	0.43372753
21	0x3e13945b	0.14412062
22	0xbf5f9806	-0.87341344
23	0x3ed45d82	0.4147759
24	0x3eddd0d9	0.433234
25	0x3f11242a	0.56695807
26	0xbf9e9c99	-1.239154
27	0xbf48ee9b	-0.78489083
28	0xbecbb7f7	-0.39788792
29	0x3f8585cd	1.0431458
30	0xbfc03ec5	-1.5019156
31	0x3ead54c2	0.33853728
32	0xbfa4fc1f	-1.2889441
33	0x3d3ff2fe	0.046862595
34	0x3e7bf2f1	0.24604394
35	0x3d64cc62	0.055858977
36	0x3e073c0a	0.13206497
37	0xbe67ff06	-0.22655877
38	0xbea0911e	-0.31360716
39	0xbd17da23	-0.037073266
40	0x3dceaa2c	0.100910515
41	0x3d9a3124	0.07528904
42	0x3e296a67	0.16544496
43	0x3f7aa253	0.9790394
44	0xbef64f28	-0.48107266
45	0x3f65cb61	0.89763457
46	0x3edb1065	0.42785946
47	0xbe26337c	-0.16230577
48	0xbf537a84	-0.8260882
49	0xbee17c11	-0.44039968
50	0x3d3b3006	0.045700096
51	0xbd8e4161	-0.06946064
52	0xbdd7682a	-0.105179146
53	0xbd0a9a07	-0.0338383
54	0xbdd2e15b	-0.102968894
55	0x3e94fe88	0.29100442
56	0xbff68872	-1.926039
57	0xbdcfc454	-0.101448685
58	0x3e853994	0.2602049
59	0x3f071b18	0.52775717
60	0xbf4ab941	-0.79188925
61	0xbf08f75c	-0.5350244
62	0xbfc0844f	-1.5040377
63	0xbe8532d8	-0.26015353
64	0x3f70966a	0.93979514
65	0x3f16fcbb	0.58979386
66	0xbf14603f	-0.5795936
67	0xbf7f1752	-0.9964496
68	0x3d5fe44b	0.054661077
69	0xbf739c22	-0.95160115
70	0x404a36c1	3.159592
71	0xbfb6535b	-1.4244188
72	0xbfb76e05	-1.433045
73	0x3f1c22a5	0.60990363
74	0xbfca41a6	-1.5801284
75	0xbe8ab91d	-0.27094355
76	0x3df767af	0.12080323
77	0xbe9d8148	-0.30762696
78	0xc0388188	-2.882906
79	0x3fb66ece	1.4252565
80	0x400be10c	2.1856108
81	0xbe96f879	-0.29486445
82	0x3f2df736	0.6795534
83	0xbe642917	-0.222813
84	0x3e33b123	0.17548041
85	0xbdd2a35a	-0.10285063
86	0x403ee727	2.9828584
87	0x3ff79d37	1.9344853
88	0x3ecf71fa	0.40516645
89	0x3f1776cc	0.59165645
90	0xbfa5c460	-1.2950554
91	0xbfe32c22	-1.7747843
92	0xbf842cfd	-1.0326229
93	0xbfbb2022	-1.4619181
94	0x3f72b44f	0.9480638
95	0xbfe77af5	-1.8084399
96	0xbece6666	-0.403125
97	0x3f3e9fde	0.7446269
98	0xbed0a265	-0.40748897
99	0xbda02581	-0.07819653
100	0x3e966ef4	0.29381526
101	0x3d6bfe7d	0.057615746
102	0x3c0b1595	0.008489032
103	0xbf39a7cf	-0.7252168
104	0xbea4f9be	-0.32221788
105	0xbf023f00	-0.5087738
106	0x3ca18537	0.019716842
107	0x3f11af0e	0.5690774
108	0x3f1fa1e5	0.62356406
109	0x3ec4a664	0.38408196
110	0x3f5fd6c1	0.87437063
111	0xbf675b85	-0.9037402
112	0xbf38dde4	-0.7221358
113	0xbf3f8e66	-0.7482666
114	0x3ddfbccf	0.10924684
115	0xbe96ab95	-0.29427782
116	0x3f45674f	0.7711076
117	0x3f3a7bbf	0.7284507
118	0xbe401d20	-0.1876111
119	0x3f4c4f95	0.7980893
120	0xbfa408a2	-1.2815135
121	0x3eee21c1	0.46510127
122	0xbec71fe4	-0.38891518
123	0xbeca65b8	-0.3953073
124	0xbed3449d	-0.41263285
125	0xbf398663	-0.7247068
126	0xc00e6d42	-2.2254186
127	0x3f1e1fe6	0.61767423

weight_hh_l1 f4 [16, 4]
0	0xbe011d43	-0.12608819
1	0xbdfd178a	-0.12358005
2	0x3e988d7b	0.2979544
3	0xbe881c24	-0.2658397
4	0x3e4f6aff	0.2025566
5	0x3eb06652	0.34453064
6	0xbe80c242	-0.25148207
7	0x3e13f3e5	0.14448507
8	0xbe8f74dd	-0.28018847
9	0xbeab96cd	-0.3351349
10	0x3dffc65e	0.124890074
11	0xbe37e485	-0.17958267
12	0x3dab813a	0.083742574
13	0xbe6dcb23	-0.23222022
14	0x3dcacaba	0.09901948
15	0x3f47f92a	0.7811457
16	0x3f8dfef9	1.1093436
17	0xbe77da50	-0.24204373
18	0x3da4bc7d	0.08043764
19	0x3e94eddd	0.29087725
20	0xbf67c0cf	-0.9052858
21	0x3eea0c51	0.45712522
22	0x3eadf2ad	0.3397421
23	0xbe491118	-0.19635427
24	0xbf114455	-0.5674489
25	0xbd6207db	-0.055183273
26	0xbf70f594	-0.9412472
27	0xbf0fb204	-0.56131005
28	0x3ee44000	0.44580078
29	0x3ef4b615	0.47795168
30	0xbde073e1	-0.10959602
31	0x3de30bd8	0.110862434
32	0xbeeb7541	-0.45987895
33	0xbfeb8ee9	-1.8402988
34	0x3ee17a9a	0.4403885
35	0x3fa5536d	1.2916085
36	0x3dd54764	0.10414007
37	0x3f16d5c8	0.58919954
38	0xbfd52059	-1.6650497
39	0xbed92ad8	-0.424155
40	0xbf8a4204	-1.0801396
41	0x3f5af9e5	0.8553756
42	0x3ebbaf48	0.36657166
43	0xbe93363c	-0.28752315
44	0xbef8f5c2	-0.48624998
45	0xbf20b633	-0.62778014
46	0xbf0b557b	-0.5442731
47	0x3f0aa8a1	0.5416356
48	0x3e35d56b	0.17757194
49	0xbf566573	-0.8374855
50	0x3eef13fb	0.4669493
51	0xbf56fa87	-0.83976024
52	0x3dcbf9fd	0.09959791
53	0xbf072341	-0.5278817
54	0x3e6736e3	0.22579531
55	0xbf0bd3ec	-0.5462024
56	0x3dfca5f7	0.12336343
57	0x3e6e4cf1	0.23271538
58	0xbe0ffb7b	-0.14060776
59	0xbebcd973	-0.3688465
60	0xbe84a35f	-0.25905892
61	0xbe9ca72b	-0.3059629
62	0xbf47c1b3	-0.78029937
63	0xbed75000	-0.42053223

bias_ih_l1 f4 [16]
0	0x3e4ad893	0.19809179
1	0xbe00e3df	-0.12586926
2	0xbe99b145	-0.30018058
3	0xbf408715	-0.7520612
4	0xbe98bf05	-0.29833236
5	0x3f343efb	0.704086
6	0x3efad248	0.48988557
7	0x3e91b0a8	0.2845509
8	0x3d894000	0.0670166
9	0x3dab132f	0.08353268
10	0xbe6f97e9	-0.23397793
11	0xbddbfbcf	-0.10741388
12	0x3f38155e	0.71907604
13	0x3f284575	0.65730983
14	0x3dd4d3d5	0.10391966
15	0xbe6a52ee	-0.22883198

bias_hh_l1 f4 [16]
0	0xbe58d737	-0.21175848
1	0x3eb3e19f	0.35133073
2	0x3e459c1d	0.19297834
3	0xbe0e9733	-0.13924865
4	0x3e1356fb	0.14388649
5	0x3f89f592	1.0778067
6	0x3e7527dc	0.23940986
7	0x3f1a1684	0.60190606
8	0xbea213a2	-0.31655604
9	0x3ec094b1	0.37613443
10	0xbecfd8df	-0.40595147
11	0x3e5bff4f	0.21484111
12	0x3f0ca2cd	0.54935914
13	0x3ecd2dfc	0.40074146
14	0x3ed4af56	0.4154002
15	0xbe3623a7	-0.17787038

weight_ih_l1_reverse f4 [16, 8]
0	0x3f859973	1.0437454
1	0x3f84f45a	1.038707
2	0xbfdf6909	-1.7453929
3	0xbf1679fb	-0.5877988
4	0xbf932218	-1.149478
5	0xbd8b31ba	-0.06796594
6	0xbe75a610	-0.23989129
7	0xbdd75479	-0.10514159
8	0x4003e8c8	2.0610828
9	0x3f4a16da	0.7894112
10	0xbf6f480a	-0.934693
11	0x3f7800f2	0.9687644
12	0x3f41e011	0.75732523
13	0x3f877502	1.0582583
14	0x3fcf2713	1.61838
15	0xbf7d5d60	-0.98970604
16	0xbf943df1	-1.1581403
17	0x3f9f19d7	1.2429761
18	0x3dddce33	0.10830345
19	0xbf2eeed3	-0.68333167
20	0x3fb60547	1.422036
21	0x3c9df822	0.019283358
22	0xc0082675	-2.1273472
23	0xbed5d7a0	-0.4176607
24	0x3d90919e	0.07059024
25	0x3f0d9026	0.5529808
26	0xbeefb390	-0.46816683
27	0xbe33f4ed	-0.175739
28	0xbe25c7ac	-0.1618945
29	0x3f0b63af	0.5444898
30	0xbd60089d	-0.054695714
31	0xbe0d9ab7	-0.1382855
32	0x3ca17846	0.019710671
33	0xbdf73c37	-0.12072032
34	0x4014ae85	2.3231518
35	0x3f1f6954	0.6227009
36	0xbe7aba77	-0.24485193
37	0x3fa50ff2	1.2895491
38	0x3d8e3a2f	0.069446914
39	0x3e71f47e	0.23628423
40	0x3fe7a9c8	1.8098688
41	0xbf95b35c	-1.1695361
42	0x3fda2be0	1.704464
43	0xbdc078c9	-0.09398038
44	0x3dc29945	0.0950189
45	0x3ee730dc	0.45154464
46	0x3f82b7dd	1.0212361
47	0x3f181dab	0.5942027
48	0x3ed34a4f	0.4126763
49	0x3f345796	0.70446146
50	0x3f0f664e	0.5601548
51	0x404bedeb	3.1863964
52	0xbf78b0fa	-0.97145045
53	0x3fb34b07	1.4007272
54	0xbf252045	-0.64502364
55	0x3f55a010	0.8344736
56	0x3f2c661b	0.673433
57	0xbf023b5e	-0.5087184
58	0x3da2083f	0.07911729
59	0xbefadba1	-0.4899569
60	0xbee016ee	-0.43767494
61	0x3c237a3a	0.009977872
62	0x3ec40c48	0.3829062
63	0xbe9f7116	-0.31140965
64	0x3f4b0576	0.7930521
65	0xbf73aec6	-0.9518856
66	0x3fd3fdb3	1.6561798
67	0x3f414657	0.75497955
68	0x3f79b8c0	0.9754753
69	0x3f983bfd	1.1893307
70	0xbda780c3	-0.08178856
71	0x40396c08	2.8972187
72	0x3d94de64	0.0726898
73	0xbed4aed6	-0.4153964
74	0x3c4831dc	0.012218919
75	0xc0070ac3	-2.1100318
76	0xbeb3cae2	-0.35115725
77	0xbffb92c7	-1.9654168
78	0x404f92ac	3.2433271
79	0xbfd8d7ce	-1.6940858
80	0x4038b949	2.886309
81	0xbf087a8e	-0.53312004
82	0x3ef8ecac	0.48618066
83	0xbf48da5d	-0.78458196
84	0x3f037c7f	0.5136184
85	0xbf348a83	-0.7052385
86	0x404cb55e	3.1985698
87	0xbeaf8af9	-0.34285715
88	0x3edd18bf	0.43182942
89	0x3f6411c1	0.8908959
90	0xbf20e9dc	-0.6285684
91	0xbf4803c1	-0.7813073
92	0xbf4c851d	-0.79890615
93	0xbf4e0cd2	-0.8048831
94	0x400fcddb	2.2469394
95	0xbfccffa9	-1.6015521
96	0xbf2c1fcf	-0.67236036
97	0x3f9abde2	1.2089198
98	0xbf2d1835	-0.6761506
99	0x3daf5a41	0.085621364
100	0xbf0dbed4	-0.55369306
101	0xbf04369e	-0.5164584
102	0xc0614110	-3.519596
103	0xbea13c76	-0.3149144
104	0x3f43de4d	0.7651108
105	0xbe0c4003	-0.13696294
106	0x3ef75702	0.4830857
107	0x3f2ea31e	0.6821765
108	0x3e90f0bc	0.28308666
109	0x3e86b7c1	0.26312068
110	0x3fb0233a	1.376075
111	0x3f130b96	0.57439554
112	0x3df8f3f4	0.12155905
113	0xbfc28184	-1.5195775
114	0x3fa986e2	1.3244288
115	0x3f5a4b11	0.8527079
116	0xbe53e2ce	-0.20691988
117	0x3f56666b	0.8375003
118	0xbf76985b	-0.96326226
119	0x3ee66124	0.44995987
120	0x3f59c12d	0.8506039
121	0x3ec4d973	0.3844715
122	0xbf442148	-0.76613283
123	0x3e1b7c5c	0.15184158
124	0xbf4e4322	-0.80571187
125	0xbdb53688	-0.08848292
126	0xbeca09bf	-0.3946056
127	0xbe87d052	-0.26526123

weight_hh_l1_reverse f4 [16, 4]
0	0xbe23185e	-0.15927264
1	0xbe83522f	-0.2564864
2	0xbe62980f	-0.22128318
3	0x3f3332d7	0.6999945
4	0xbf4b91f9	-0.7951961
5	0xbed291ba	-0.41126806
6	0x3ba61a57	0.005069058
7	0x3eafe439	0.34353808
8	0x3eb5ccb4	0.3550774
9	0x3fa0a32c	1.2549796
10	0x3f0169c7	0.5055203
11	0xbe7a095d	-0.24417634
12	0xbda1bcb1	-0.07897318
13	0xbf592503	-0.848221
14	0xbe5ed649	-0.21761431
15	0x3d527917	0.05138501
16	0xc0399868	-2.8999271
17	0x3f0fc116	0.56154
18	0xbee8f486	-0.45499057
19	0xbe11ea2e	-0.14249489
20	0xbfb742d0	-1.4317265
21	0xbf16c8bb	-0.5890004
22	0x3fab4428	1.3380175
23	0xbe8767c6	-0.2644636
24	0x3df20976	0.11818211
25	0xbf5a2aac	-0.8522136
26	0xbf90ad80	-1.1302948
27	0xbe7385b5	-0.23781474
28	0xbf31f547	-0.6951489
29	0x3e2980ab	0.16552989
30	0xbef75c8f	-0.48312804
31	0x3f2fb9fa	0.6864315
32	0x3f3bbf01	0.73338324
33	0xbf428696	-0.7598661
34	0x3fbc27ea	1.4699681
35	0x3e02b8ab	0.12765758
36	0x3ebb1bbf	0.36544606
37	0x3f28ed7d	0.6598738
38	0x3f8cc97a	1.0998986
39	0x3efaad46	0.48960322
40	0xbfd8a5c5	-1.6925589
41	0xbf2dfba4	-0.679621
42	0xbda8faff	-0.08250999
43	0xbf745335	-0.95439464
44	0xbf216b37	-0.6305422
45	0xbf95f5cb	-1.1715635
46	0x3e8688bd	0.26276198
47	0xbf7874b6	-0.97053087
48	0xbf19a3a6	-0.6001533
49	0x3ec2dccb	0.38059077
50	0xbfc2031a	-1.5157197
51	0xbea36e7a	-0.31920224
52	0xbf6a84fd	-0.91609174
53	0xbe8be8de	-0.273261
54	0xbf1aabc3	-0.6041834
55	0x3eca365d	0.394946
56	0x3f7cda39	0.9877048
57	0x3f421def	0.75826925
58	0x3e57cd88	0.21074498
59	0x3e169fb4	0.1470936
60	0xc0017b16	-2.0231376
61	0x3e5ab1f2	0.21356943
62	0xbe2f7be5	-0.17137106
63	0x3eb7af65	0.35876003

bias_ih_l1_reverse f4 [16]
0	0xbf945b22	-1.1590312
1	0x3c11f8cd	0.008909416
2	0xbef15cfb	-0.4714125
3	0x3c294f08	0.010333784
4	0x3fd8ecc7	1.6947259
5	0xbc21df6f	-0.009879931
6	0xbeb848c7	-0.35993025
7	0xbe8b5f74	-0.27221262
8	0xbd6ba2e1	-0.05752838
9	0x3f249a5f	0.6429805
10	0x3ed9e10e	0.42554516
11	0xbe7e7c48	-0.24852097
12	0x3f07e868	0.53089
13	0x3f570034	0.83984685
14	0xbd01e957	-0.03171667
15	0xbf211ef7	-0.62937874

bias_hh_l1_reverse f4 [16]
0	0xbf5e1454	-0.8674977
1	0xbebccb7d	-0.36874
2	0xbf0d5062	-0.5520078
3	0x3e06dec9	0.13170923
4	0x4002be21	2.0428545
5	0xbe732563	-0.2374473
6	0xbd487afd	-0.048945416
7	0xbe64aeb9	-0.22332276
8	0x3e6fa8f7	0.23404299
9	0x3f084fb9	0.5324665
10	0x3f2a2bfb	0.6647336
11	0xbee1090f	-0.43952224
12	0x3e9aa7e4	0.30206215
13	0x3f2fc2a5	0.6865638
14	0x3dcfc102	0.10144235
15	0x3c7db9cc	0.015486192

weight_ih_l2 f4 [16, 8]
0	0x3e1d4855	0.15359624
1	0x3ef97d23	0.48728284
2	0x3e17958e	0.14803144
3	0x3f01072a	0.50401556
4	0xbd9ec4c8	-0.07752377
5	0x3e8a056d	0.26957265
6	0x3e77499f	0.24149178
7	0xbe25e395	-0.16200097
8	0x3e8bf0f6	0.27332276
9	0x3eb2dccd	0.34934083
10	0xbebd0477	-0.3691747
11	0x3e75b264	0.23993832
12	0x3ca4227e	0.020035978
13	0xbee628da	-0.44953042
14	0x3ea5a9a8	0.32356
15	0x3d16fc3f	0.036861654
16	0x3e7b4aa5	0.24540193
17	0xbf0253d8	-0.50909185
18	0x3eabf77f	0.33587262
19	0xbe98b731	-0.29827264
20	0x3ec6b5ef	0.3881068
21	0xbe34e290	-0.17664552
22	0x3e9fce77	0.31212208
23	0xbee50931	-0.44733575
24	0x3eb55dc1	0.3542309
25	0xbd0a63ed	-0.033786703
26	0x3cccfdff	0.025023459
27	0xbeb4b285	-0.3529245
28	0xbe56b24d	-0.20966454
29	0x3d7de014	0.061981276
30	0x3d929a8f	0.07158386
31	0x3ef1a516	0.47196263
32	0x3da4ab4c	0.08040485
33	0xbee33b8e	-0.44381374
34	0x3e04a1ae	0.12952301
35	0xbe068e5b	-0.13140242
36	0xbba765fb	-0.0051085926
37	0xbe9573d6	-0.29189938
38	0x3e94a1fb	0.2902983
39	0x3ec62d8a	0.3870662
40	0x3e97e609	0.2966769
41	0xbef4be6c	-0.4780153
42	0xbeb79d61	-0.35862258
43	0xbceccdf6	-0.028906804
44	0xbae9a622	-0.0017826001
45	0xbe62d106	-0.22150049
46	0xbed8c16f	-0.42335078
47	0xbefbe342	-0.4919682
48	0xbe5a2b41	-0.21305563
49	0xbe3b0e5a	-0.18267193
50	0xbeacdd46	-0.33762568
51	0xbdd47513	-0.10373893
52	0xbdcea1ac	-0.1008943
53	0xbd45b5f2	-0.04826922
54	0x3cfa21a2	0.030533615
55	0x3d86f256	0.06589191
56	0xbe8279ec	-0.25483644
57	0xbe7f1b09	-0.24912657
58	0x3d8203f6	0.06348412
59	0x3cc3af5e	0.023887333
60	0x3eefd2e6	0.4684059
61	0xbefe535b	-0.4967297
62	0xbcfed567	-0.031107618
63	0xbe9f6000	-0.3112793
64	0x3e872d43	0.2640172
65	0x3e2c258b	0.16811197
66	0x3d73b083	0.059494507
67	0xbeb79320	-0.35854435
68	0x3edb5c32	0.42843777
69	0xbeb590c7	-0.3546202
70	0xbec88d6e	-0.39170402
71	0xbf055785	-0.5208667
72	0x3e414d10	0.18877053
73	0x3e8e584d	0.27801743
74	0x3ea56e5b	0.32310757
75	0x3e61256a	0.21986929
76	0x3e08a76e	0.1334512
77	0x3ec4de98	0.38451076
78	0xbefa02b3	-0.48830184
79	0xbeb9f725	-0.3632137
80	0x3cfaab2f	0.030599205
81	0xbd9defe7	-0.07711773
82	0x3f023883	0.5086748
83	0x3ea66f07	0.32506582
84	0x3ee4d725	0.44695392
85	0x3ec29f9c	0.38012397
86	0x3ec467b3	0.38360366
87	0xbe92262b	-0.28544745
88	0x3e6fe1c1	0.23425962
89	0xbd3f6414	-0.0467263
90	0x3d318cac	0.043347046
91	0x3e8a4452	0.2700525
92	0x3e8e78eb	0.27826628
93	0xbea3a31f	-0.3196039
94	0x3e928f25	0.28624836
95	0x3e5ef238	0.21772087
96	0x3e5b87b4	0.21438485
97	0xbebfb559	-0.37443045
98	0x3d9c6ba6	0.0763772
99	0xbe8cc38b	-0.27492937
100	0x3dbc1ff5	0.09185783
101	0xbe67275b	-0.22573607
102	0x3eed7c1e	0.46383756
103	0x3e5907f9	0.21194448
104	0x3efe26fa	0.49639112
105	0xbec92270	-0.39284086
106	0xbeb16c52	-0.34652954
107	0xbdeacfc7	-0.11465412
108	0xbead9634	-0.33903658
109	0xbd42b4d7	-0.047535744
110	0x3e6130e9	0.21991314
111	0x3ee77319	0.45205
112	0xbe40125d	-0.18757005
113	0xbebac770	-0.36480284
114	0xbe6562bf	-0.2240095
115	0xbe3c62d5	-0.18397076
116	0xbdf3a18c	-0.11896047
117	0xbe009388	-0.12556279
118	0x3eb19165	0.3468124
119	0x3cf34769	0.029697137
120	0xbe376d9c	-0.17912906
121	0x3efc6f84	0.4930383
122	0xbec34811	-0.3814092
123	0x3d0d2057	0.03445467
124	0xbe9ee420	-0.3103342
125	0x3e45e35b	0.1932501
126	0xbeb5a9c0	-0.3548107
127	0xbd6824b7	-0.05667564

weight_hh_l2 f4 [16, 4]
0	0xbe62a085	-0.22131546
1	0xbeb7a8a3	-0.35870847
2	0xbebb0f38	-0.36535048
3	0xbece1f64	-0.40258324
4	0xbeda65ea	-0.4265588
5	0xbe99b825	-0.30023304
6	0xbedf3bf9	-0.43600443
7	0xba777cd7	-0.0009440905
8	0xbeea278e	-0.45733303
9	0x3e55b7d7	0.2087091
10	0x3de5baf8	0.11217302
11	0x3d68c879	0.05683181
12	0x3edb8bb8	0.42880034
13	0xbecc4ee8	-0.3990395
14	0xbdf31ae5	-0.11870364
15	0x3e29225a	0.1651701
16	0xbd07e269	-0.033174906
17	0x3ee43e06	0.4457857
18	0xbe802243	-0.2502614
19	0xbea9ef3c	-0.33190334
20	0xbea05952	-0.31318146
21	0x3d528acc	0.0514019
22	0xbef0108f	-0.46887633
23	0xbe324a1a	-0.1741108
24	0x3e6eb937	0.23312841
25	0x3e810141	0.2519627
26	0x3e83c025	0.25732532
27	0x3ebabc5c	0.36471832
28	0xbea11411	-0.31460622
29	0x3eae4ffc	0.34045398
30	0x3da2c23d	0.07947204
31	0xbef36cbc	-0.47543895
32	0xbeace9f1	-0.33772233
33	0x3edc46a3	0.43022642
34	0x3e1997ce	0.14999315
35	0x3e7aaa5d	0.24479051
36	0x3eb1248b	0.34598193
37	0xbef7c48c	-0.4839214
38	0x3edcbfa4	0.4311496
39	0xbe511566	-0.20418319
40	0xbe4107b2	-0.18850592
41	0x3ec6e764	0.38848412
42	0xbe6abe30	-0.22924113
43	0x3eeba830	0.46026754
44	0xbde121c9	-0.10992772
45	0xbe22b9c9	-0.15891184
46	0xbd0d00dd	-0.03442465
47	0xbe8fcae4	-0.2808448
48	0x3ed24f14	0.41075957
49	0xbe6ed7cf	-0.23324512
50	0xbedd9bde	-0.4328298
51	0x3ed55b54	0.4167124
52	0x3dc796b4	0.09745541
53	0xbed6f90f	-0.41986892
54	0xbd8e9dc1	-0.06963683
55	0x3e9eec5a	0.31039697
56	0x3db17235	0.086643614
57	0x3eb461de	0.35230917
58	0x3ecfb200	0.4056549
59	0xbebe8b79	-0.37215784
60	0x3e895669	0.26823738
61	0x3cc33afe	0.02383184
62	0x3ea1d859	0.31610373
63	0x3ef7f5e5	0.4842979

bias_ih_l2 f4 [16]
0	0x3dfdd0ee	0.12393366
1	0x3eda0702	0.42583472
2	0xbf04250e	-0.5161904
3	0x3e9701c7	0.29493544
4	0x3e78e50c	0.24306124
5	0xbea46419	-0.32107618
6	0xbc38910e	-0.0112650525
7	0xbd6c0e75	-0.057630975
8	0xbeda5df1	-0.42649797
9	0xbe59370a	-0.21212402
10	0xbe95ca9b	-0.29256138
11	0x3e9f5913	0.31122646
12	0x3e8e701a	0.27819902
13	0xbe455c52	-0.19273499
14	0x3de560ee	0.112001285
15	0x3e638d75	0.2222193

bias_hh_l2 f4 [16]
0	0x3ee9324f	0.45546195
1	0x3eb44188	0.35206246
2	0x3d02c996	0.03193053
3	0xbe18227c	-0.14856905
4	0xbead807e	-0.33887094
5	0x3e30de8e	0.17272398
6	0xbe3a704b	-0.18206899
7	0x3d65a716	0.05606755
8	0x3ed2c283	0.41164026
9	0x3e7764b8	0.24159515
10	0x3ec47ab6	0.3837487
11	0xbd82215e	-0.063540205
12	0xbeeaba8e	-0.45845455
13	0xbef3480e	-0.4751591
14	0xbef9bc15	-0.48776308
15	0x3ee76a45	0.45198265

weight_ih_l2_reverse f4 [16, 8]
0	0x3ec8737a	0.39150602
1	0xbe908b63	-0.28231344
2	0xbcb18a32	-0.021672342
3	0xbf34b8d8	-0.7059455
4	0xbe17098d	-0.14749737
5	0xbe5dc9ef	-0.21659063
6	0xbf31e399	-0.6948791
7	0x3fac0423	1.3438762
8	0x3f232cf4	0.6374047
9	0x3da02ccd	0.07821045
10	0x3d9110fe	0.07083319
11	0xbea631c0	-0.3245983
12	0xbdda61c0	-0.106631756
13	0x3f6fa028	0.93603754
14	0xbfc091a3	-1.5044445
15	0x3f68a040	0.9086952
16	0x3f5f3cd7	0.8720221
17	0xbf7c7b84	-0.9862597
18	0xbbf9238c	-0.0076031145
19	0xbecd92cf	-0.4015107
20	0x3f081f55	0.5317281
21	0xbddef08f	-0.10885727
22	0xbf44f9dc	-0.76943755
23	0xbe32638a	-0.17420784
24	0x3e610001	0.21972658
25	0xbedae0f3	-0.42749748
26	0xbee7eb87	-0.4529688
27	0xbe44ecd9	-0.19230975
28	0x3f6dc2d3	0.92875403
29	0xbc7ec96c	-0.015550952
30	0xbfcf3651	-1.6188451
31	0x3fdae145	1.7099997
32	0xbda6311c	-0.081148356
33	0xbe4f4fad	-0.20245238
34	0x3f258c02	0.6466676
35	0xbf429ce5	-0.7602065
36	0xbeff42c6	-0.49855632
37	0xbd7e18f8	-0.06203553
38	0x3f726c66	0.9469665
39	0x3f0cb73e	0.54967105
40	0x3f251297	0.6448149
41	0x3ee94d1e	0.45566648
42	0xbd0fab25	-0.035075326
43	0x3f06e2aa	0.5268961
44	0xbd665baf	-0.05623978
45	0x3f286ffd	0.6579588
46	0x3f11a634	0.5689423
47	0x3ec950ed	0.39319554
48	0xbed731e1	-0.42030242
49	0xbd265652	-0.040609665
50	0x3f281ba1	0.6566716
51	0xbea1ea5b	-0.31624112
52	0x3f4859c0	0.7826195
53	0x3ecdba2e	0.40181106
54	0xbf66f025	-0.9021018
55	0x3e959ed6	0.29222745
56	0xbfdcc181	-1.7246553
57	0x3db441b6	0.08801596
58	0x3f7cb332	0.9871093
59	0xbffd23f0	-1.9776592
60	0x3f16e0a2	0.5893651
61	0xc0462665	-3.0960934
62	0xbf8b7717	-1.0895718
63	0xbf5af171	-0.8552466
64	0x3f7bd365	0.9836944
65	0xbeeefc7a	-0.46677
66	0x3fa604ed	1.2970253
67	0x3fb34701	1.4006044
68	0xc039f034	-2.9052858
69	0xbf6419a1	-0.89101607
70	0x3fc92acb	1.5716184
71	0x3bfed8a0	0.0077772886
72	0x3f66cc43	0.9015543
73	0xbf835fd2	-1.0263617
74	0x3f7010ce	0.9377564
75	0x3e1f5f14	0.15563613
76	0xbf54bb79	-0.8309856
77	0x3fd00f50	1.6254673
78	0xbebd9729	-0.3702939
79	0x3fd32b9f	1.6497687
80	0x3ff02c17	1.8763455
81	0xbfb06bec	-1.3782935
82	0x3e551032	0.2080696
83	0x3f895174	1.0727983
84	0xbe47e041	-0.1951914
85	0x3e694e14	0.2278369
86	0xbef3aacc	-0.47591245
87	0x3f8e4fcd	1.1118103
88	0x3f499b2f	0.78752416
89	0xbf44c927	-0.76869434
90	0x3faaa59d	1.3331791
91	0x3fce2df9	1.610778
92	0x3f21ecf7	0.63252205
93	0x3f01806e	0.50586593
94	0x401ed410	2.4816933
95	0x3f83963b	1.0280222
96	0x3f703857	0.9383597
97	0xbf69d734	-0.91344
98	0x3ed5869d	0.41704264
99	0x3f0d7056	0.55249536
100	0x3fd30586	1.6486061
101	0x3ef3cd66	0.47617644
102	0x3f1eb3ee	0.619933
103	0x3f630035	0.8867219
104	0x3f2bd599	0.671228
105	0x3ccb1f4c	0.024795197
106	0x3e17b2d7	0.14814316
107	0x3d2586b8	0.04041168
108	0x3ece10c4	0.40247166
109	0x3d9d1677	0.076703005
110	0xbe731230	-0.23737407
111	0x3ef85b49	0.48507145
112	0x3e95a14d	0.29224625
113	0xbf867927	-1.0505723
114	0x3eeae5c9	0.45878437
115	0x3e3e0fe0	0.18560743
116	0x3f0cd9f3	0.55020064
117	0xbe1abcae	-0.15111038
118	0xbf1d2995	-0.61391574
119	0x3e89418a	0.26807815
120	0x3eaef4bb	0.3417109
121	0x3fd80443	1.68763
122	0x3dde1ff3	0.108459376
123	0x3f17cc70	0.5929632
124	0x3f0dd40e	0.55401695
125	0x3fa53758	1.2907515
126	0x3f876f0d	1.0580765
127	0x3f23051d	0.6367968

weight_hh_l2_reverse f4 [16, 4]
0	0x3f4d9de2	0.80319035
1	0xbe4a726c	-0.19770211
2	0xbebd7b38	-0.3700807
3	0x3d6a001a	0.057129003
4	0xbf9c2c6a	-1.2201054
5	0xbc4cfd4d	-0.0125115635
6	0x3dcddfad	0.100524284
7	0xbc511593	-0.012761491
8	0xbed34519	-0.41263655
9	0xbe928a57	-0.2862117
10	0xbe987a5a	-0.29780847
11	0xbf46d8c3	-0.776745
12	0xbf9528b9	-1.1653053
13	0xbdf03528	-0.11728889
14	0x3e758368	0.23975909
15	0x402b4fd2	2.6767468
16	0x3f8278d8	1.0193129
17	0xba3f9af9	-0.00073091645
18	0xbf726fcc	-0.9470184
19	0xbfc3ba04	-1.5291142
20	0x3ee97dbb	0.45603737
21	0x3e7a7657	0.24459206
22	0xbeb3f91b	-0.3515099
23	0x3cc75030	0.024330229
24	0xbe6f6124	-0.233769
25	0x3efbf582	0.49210745
26	0x3e37a7fc	0.17935175
27	0x3c0f02d5	0.008728703
28	0x401b24f1	2.4241297
29	0x3f4ed2b5	0.80790263
30	0xbf41dbf6	-0.7572626
31	0x40309d34	2.759595
32	0x3fbbf496	1.4684017
33	0xbe4fed20	-0.203053
34	0x3dc2f7b3	0.09519901
35	0x3c4f688e	0.012659205
36	0xbdf922fa	-0.121648744
37	0xbf14d9de	-0.5814494
38	0xbdd8760f	-0.10569393
39	0xbef45cca	-0.47727042
40	0xbf73bfe9	-0.95214707
41	0xbd1ec308	-0.038760215
42	0x3edfdfeb	0.43725523
43	0xbee92f96	-0.45544118
44	0x3ff5fb58	1.9217329
45	0xbf0bdaa6	-0.54630506
46	0xbf1f4b75	-0.62224513
47	0xbfe31f88	-1.7743998
48	0x3edd3aba	0.43208867
49	0xbf1a3264	-0.6023314
50	0xbe2dd35a	-0.16975155
51	0x3e2c8b74	0.16850072
52	0xbe2443b3	-0.1604145
53	0x3ee2067f	0.4414558
54	0x3e176cfd	0.1478767
55	0x3e7a675d	0.24453492
56	0xbf40d1c7	-0.75320095
57	0x3f359aa8	0.7093911
58	0x3e9b0d1f	0.30283448
59	0xbf727161	-0.9470425
60	0x3f8f6425	1.1202437
61	0x3ed30a4c	0.41218793
62	0xbee17264	-0.44032586
63	0xbf5f4ce2	-0.8722669

bias_ih_l2_reverse f4 [16]
0	0xbf29d6a8	-0.66343164
1	0xbf8527f9	-1.0402824
2	0xbe4fa883	-0.20279126
3	0xbfd75366	-1.6822326
4	0x3f26d4e0	0.6516857
5	0x3efe82ac	0.4970907
6	0xbcd599d6	-0.026074331
7	0x401f3a0f	2.4879186
8	0x3f1cd585	0.61263305
9	0xbddd5bc1	-0.10808516
10	0x3c223337	0.009899906
11	0x3d9ffec5	0.07812265
12	0x3f2788e8	0.6544328
13	0x3f7d317d	0.9890364
14	0x3e14f01f	0.14544724
15	0x3fbf6f83	1.4955906

bias_hh_l2_reverse f4 [16]
0	0xbfa12a3f	-1.2591017
1	0xbe94ffab	-0.2910131
2	0xbe37ed33	-0.17961578
3	0xbfb068d9	-1.3781997
4	0x3f546501	0.8296662
5	0x3ed84070	0.42236662
6	0xbe9f926a	-0.31166393
7	0x4008d80f	2.1381872
8	0x3f468d22	0.775591
9	0x3e6c82dd	0.23096795
10	0xbf10dbcc	-0.56585383
11	0xbdd5b950	-0.10435736
12	0x3f33e98d	0.70278245
13	0x3ef8bbb1	0.48580697
14	0x3ea6c87b	0.3257483
15	0x3faa3de5	1.3300139

weight f4 [1, 8]
0	0xbe6a9635	-0.22908862
1	0x3dfea08f	0.12432968
2	0x3e0e8514	0.13917953
3	0x3d60bfd0	0.054870427
4	0xc0015c6a	-2.0212655
5	0xc059bd0c	-3.4021635
6	0xc03e05f8	-2.9691143
7	0xc0c6de5b	-6.214643
