cours/TP/tp2/checkpoints/best_dungeon_model.pt (torch, 34677 bytes, 31 tensors)

weight f4 [45, 16]
00000000: 0000 0000 0000 0000 0000 0000 0000 0000
00000010: 0000 0000 0000 0000 0000 0000 0000 0000
00000020: 0000 0000 0000 0000 0000 0000 0000 0000
00000030: 0000 0000 0000 0000 0000 0000 0000 0000
00000040: 1961 6c3f 58be 88bf e9a4 0f40 22e9 3dbf
00000050: 436c 013f 4440 11c0 902d 6cbe 2a27 793f
00000060: 8a9a 0ac0 88dd b7bf cfd7 12be ee43 6e3f
00000070: bc44 633f f18e 3abf d967 d33f 24c7 a5bf
00000080: 05bd 6dbf 6cf5 3cbf 3c8f 4a3f 1c1b f1bf
00000090: f571 e5bf a8dd d8bf f156 c73f 5c9f 29bf
000000a0: 0a14 58bf 992b 89bf 8f4e a53d 296e 3abd
000000b0: 1803 dd3d 37ef 6fbf 0c0e 0d40 f22a 77bf
000000c0: 1f6b 12c0 f433 1ec0 ad57 52be c90c eb3f
000000d0: b06b ca3e 2a5f ca3e 8612 9cbf fefd bebf
000000e0: 90ea 7a3e 6944 debd 5d3f 28bd 71a3 a7bd
000000f0: 0874 0bbf d3fc 823d 13dd 1640 787e e9bf
00000100: 4d25 063f 8ca8 1ebc f509 433f ef1b a93f
00000110: 5548 01bf 354a 8b3f 8b11 a9bf fa89 c63f
00000120: fd2c 93bf 0527 613f 6271 683f 1d4f 2bbf
00000130: a5f2 92bf 999e 9a3f 5849 b3bf 056a 0ebf
00000140: 97e6 dc3e 3e6f 20bf ae0f 9dbf 5db3 c0bf
00000150: f318 073f 3afd 703d 339a b73e 9d8d 74bf
00000160: 92de 593f 4665 e13f 688c e43d f80c a3bf
00000170: 5fc3 24c0 5b6a 1bc0 9680 c33f c368 953e
00000180: 4ac0 8ebe 6758 7cbf 7870 f13e b4d8 00bf
00000190: e064 303e 2cc3 02bf a6d7 f9bf d0a0 3cbf
000001a0: 2a9f 883d 76e8 7fbf 42cc 513f fc71 2c3f
000001b0: fd26 c9bf 9b10 063f 07bc 5abf b130 6ebf
000001c0: d4bd 003e dc58 ae3f 07ce 1b3f 8c8b 423f
000001d0: f284 06bf 5ce2 8cbf f42c 64bf 1496 333f
000001e0: 5b4d c6bd d57b babf 3ec2 80be 6151 9ebf
000001f0: 9a03 c3bf fdba 483f 0600 313e 9c28 743f
00000200: ff00 26bf 8ab1 873f 25be 353e acd7 e9bd
00000210: c8ae e2bf 1ad2 9ebf ac82 113e 51b1 953f
00000220: 0c9b e4be bbef 3abf f08f 65be a4fa d33f
00000230: f74e cabf 27ee 4a3f 86e2 76bf a17a 8a3e
00000240: 7e76 59bf 5c38 f9bb f806 c83e 9a26 5fbf
00000250: aeaa a03e 898f 603f aafb 57be b51e f23e
00000260: be2c 13c0 07db 7b3e 1be9 543e c89b d13c
00000270: a3b5 783f 616b b63f c4c5 19bf 4335 bb3e
00000280: 2f83 1ebf 5bff 0abe 6f9e 9dbd 6bfb c83f
00000290: 893c 6d3f 1aec 643f ab69 003f 5047 743f
000002a0: 35b0 89be 96df a9bf ad88 8e3f 7278 a7bf
000002b0: db9b 71bf e5ca eabe 470a 41bf 7033 41be
000002c0: b1cb 34bf 88a8 4c40 6d67 d73d 8cb8 843e
000002d0: 7bf0 9d3e 5a3b e3bc cd7b 51bf bcfe 84bf
000002e0: d20d 7bbe ba5e 383f d31c 133f 663c 933e
000002f0: 18b6 8c3e e974 04bf 434d a03f 5511 eebd
00000300: f041 5f3f 17de 23bf 28ee 4a3f f04e 903d
00000310: 3a39 bc3f 7201 8f3f b69f 95be 72cf c03f
00000320: 5f71 aabf c155 e83f 49cc 5a3e 6c04 0cc0
00000330: ea00 2b40 e4fd 52c0 8f6b debe 1ad9 e4bf
00000340: 051e 90bb 1d07 3a3f de49 bdbf baed 1fbd
00000350: 712a 0abf c918 f0bf f2c1 d2bf 84a2 4abf
00000360: e037 f8bf 97f7 133f 991f 1240 e949 c2bf
00000370: ce10 90bf 7fb2 4c3f 591b 6fbe 70bd a5bf
00000380: 5911 bdbf ef47 cb3e 227a 123f da43 fb3d
00000390: d558 0f40 7b24 f3be 7155 4f3f da62 8f3f
000003a0: b106 f2bf 94a2 9abf 448e 12bf 6ae0 3dbf
000003b0: 461a 833f fb3e 0f3f 967d 2d3f 864c fa3f
000003c0: 32a7 cdbf 1f30 863f 0f8a ebbe c057 b23e
000003d0: 9c5f 43be be1d 2bbf 3ed5 e83d 44a9 6e3d
000003e0: 645c 023f 4104 4abf de8b f63e b055 b73f
000003f0: 670a 91be 8b27 ed3e 0765 64bf a63b c03f
0.0 0.0 0.0 0.0 0.0 0.0 0.0 0.0
0.0 0.0 0.0 0.0 0.0 0.0 0.0 0.0
0.9233566 -1.0683088 2.2444403 -0.7418386 0.5055582 -2.2695475 -0.23064256 0.97325385
-2.1656823 -1.4364481 -0.14340137 0.930724 0.88776755 -0.7287436 1.6516067 -1.2951398
-0.92866546 -0.73811984 0.7912481 -1.8836398 -1.7925402 -1.6942644 1.5573407 -0.6625879
-0.8440558 -1.071643 0.080716245 -0.045515213 0.10791606 -0.9372439 2.2039824 -0.96549904
-2.2877882 -2.471921 -0.20541258 1.8363277 0.39535284 0.3952573 -1.2193153 -1.4921262
0.24503541 -0.10852892 -0.041076053 -0.08185471 -0.54473925 0.06395879 2.3572433 -1.824172
0.52400666 -0.009683739 0.7618707 1.321165 -0.50500995 1.0882021 -1.3208479 1.5510857
-1.1498104 0.87950164 0.9079801 -0.6691759 -1.1480299 1.207965 -1.4006758 -0.5563052
0.43144676 -0.6266974 -1.227041 -1.5054737 0.52772444 0.058835246 0.35859832 -0.95528585
0.8510524 1.7609031 0.11159593 -1.2738333 -2.5744245 -2.4283664 1.5273616 0.2918149
-0.2788108 -0.9857239 0.4715612 -0.5033066 0.17225981 -0.5107906 -1.9518936 -0.7368288
0.06670983 -0.9996408 0.819523 0.67361426 -1.5715023 0.5236909 -0.85443157 -0.9304305
0.12572414 1.3620868 0.6086125 0.7599418 -0.5254661 -1.1006579 -0.89131093 0.70150876
-0.09682723 -1.456904 -0.25148195 -1.2368585 -1.5235474 0.7841032 0.17285165 0.95374465
-0.6484527 1.0601056 0.17748316 -0.11418089 -1.7709589 -1.2407868 0.14210004 1.1694738
-0.4464954 -0.7302205 -0.22418189 1.6560864 -1.5805348 0.7926964 -0.964394 0.27046683
-0.8494643 -0.0076055955 0.39067817 -0.87168276 0.31380218 0.8771902 -0.21092096 0.47289053
-2.2996058 0.24595271 0.20792048 0.025586978 0.97152156 1.425152 -0.6006739 0.36564073
-0.6191892 -0.13573973 -0.076962344 1.5701727 0.92670494 0.8942276 0.50161237 0.95421314
-0.26892248 -1.3271358 1.113546 -1.3083632 -0.9437844 -0.4585792 -0.75406307 -0.18867278
-0.7062331 3.1977863 0.10517774 0.25922048 0.30847535 -0.027738262 -0.8182953 -1.0390239
-0.24516991 0.7201954 0.5746586 0.28757018 0.27482677 -0.5174089 1.2523578 -0.116243996
0.8720999 -0.6401076 0.7926965 0.07046306 1.4704964 1.1172316 -0.29223412 1.5063307
-1.3315848 1.815117 0.21366991 -2.18777 2.6719308 -3.2967463 -0.43441436 -1.7878754
-0.00439811 0.72667104 -1.4788167 -0.039045073 -0.5397101 -1.8757564 -1.6465437 -0.7915423
-1.9392052 0.5779967 2.2831786 -1.5178806 -1.1255128 0.79959863 -0.23350276 -1.2948437
-1.4770919 0.39703318 0.5721761 0.12268801 2.2397969 -0.4748877 0.8098975 1.1202042
-1.8908292 -1.2080865 -0.5724833 -0.74170554 1.0242393 0.55955476 0.67769754 1.9554603
-1.6066649 1.0483435 -0.46003768 0.34832573 -0.19079441 -0.6684226 0.11368798 0.058266893
0.50922227 -0.7891274 0.48153585 1.4323025 -0.2832825 0.4631923 -0.89216655 1.5018203

weight f4 [2, 2240]
00000000: 78ff 793b fa75 963c 989a 7ebb 3747 32bc
00000010: c54a 57bc 1810 593c c07c 45ba 448e c93b
00000020: 8094 9e3b a413 a4bc 00e7 813c 580e 5dbc
00000030: 4f6d 7bbc e815 943b b882 9fbb 9030 20bb
00000040: 4878 abbb 0857 823c 086d a1bc 00f5 0739
00000050: a448 7bbc 34b5 943c 2c30 da3b be0c 66bc
00000060: 642f 3c3c a041 723c 28bd 5f3c bf41 22bc
00000070: 8494 dd3b 6c3b 2d3c 90cd 603b da5d bebb
00000080: 72c4 9f3c 801a 3839 8d4b 00bc ed92 03bc
00000090: 00d4 fc3a 5094 103b bb52 85bc ac03 aabb
000000a0: 68aa 553c e059 a33c 1c2e 9c3c 48b8 d63b
000000b0: d640 1b3c 1070 a2ba 96a3 e8bb f0a7 9e3c
000000c0: e868 773c 8015 38bb e87b 8bbc ca89 163c
000000d0: 70a9 ffbb d838 153c f83e 56bb aa81 d6bb
000000e0: 402f ca3a 909e ee3a 32d3 45bc e0c9 26ba
000000f0: ac67 613c 7c07 9d3b 5c94 91bc 569f 95bc
00000100: 24f0 5fbc 46fa 45bc 2a19 a03c dc8d a13c
00000110: 8ca2 7dbc 7c45 7d3c 941c 263c 4dd9 84bc
00000120: b4d0 3e3c c25b eebb 649c 973c 782f 3e3b
00000130: c6ad 51bc 88be 833c d8af 1e3b f474 e43b
00000140: c081 d1ba f667 28bc 61df 03bc 3096 a0bb
00000150: 4afe a7bc 8884 3abc 003b b438 ac7f 39bc
00000160: 6c37 763c af8e 7abc d3d0 1cbc 36ff 9a3c
00000170: da3d 8f3c 5093 5e3b 1e4f acbc dcd2 993c
00000180: 0aa5 26bc b0a2 6d3c b331 29bc f888 073c
00000190: 1069 72bb 0b86 8cbc a885 0d3b 5038 933a
000001a0: 44fb 3b3c ccf9 7a3c 5028 9ebb e41b 7e3c
000001b0: 146a d23b c4b0 a0bc 000a 5db8 e86d a73b
000001c0: 003e 48ba c6b8 eabb 385c 693b 8689 acbc
000001d0: f8a7 a5bc c00e 77bb 68ce 073b 342d 7cbc
000001e0: 155a 4dbc 58ca 033c 4ac7 8f3c a89e 923b
000001f0: 8af9 a0bc 7408 943c e45d aabb fc08 803b
00000200: 0c93 483c 281b 5a3c f531 55bc 9052 783c
00000210: 4cd8 643c 1cc2 98bc a810 75bc 2848 41bb
00000220: acfd 543c 00eb 843c dc21 923b 7c46 a13c
00000230: 30f1 64bc 48e6 bfbb f83d 603c c2d7 8bbc
00000240: d004 4b3c c01a 9d3a 98b2 3e3c 106a af3b
00000250: 4b3a 3bbc a0e3 90ba c5af 51bc e04a 55ba
00000260: 2cd5 6c3c b8a7 3e3c 030b a6bc 74ca 883b
00000270: 88fa 8f3c fa43 57bc 06a6 043c 1c18 8d3b
00000280: 8849 2b3c b04f a6ba 76c8 873c eabd 30bc
00000290: 49e6 1ebc 67a3 2ebc 3b64 8cbc 5049 52bc
000002a0: 0074 b1b9 a474 82bc 36d8 a23c 7008 773c
000002b0: 184c 793c 583b 623c d4c7 a83b b48f 363c
000002c0: 8aa9 48bc 6b76 9bbc b2e8 40bc abdd 90bc
000002d0: f556 82bc a339 09bc d057 a03b f88a b5bb
000002e0: 8af8 f4bb f0bf 89bb cccc 89bc 113a 8fbc
000002f0: 5954 26bc 10d4 943c e4ef 7e3c ea37 60bc
00000300: 4231 853c ba6f a63c 3658 923c b05d 39bc
00000310: 3688 8dbc be3c acbc e436 f93b 88ec 61bb
00000320: 6830 1f3c 4284 b9bb fef4 983c 3759 18bc
00000330: 9bf4 7fbc bc7d ddbb 204d 9a3c ba50 97bc
00000340: b039 d13b b822 4d3c e46f 81bb d807 d23b
00000350: bf77 9ebc 3868 a4bb 9015 bbbb 0031 433c
00000360: 3f59 a4bc 5838 c0bb e0cb 053b ca11 ab3c
00000370: 4b9c 9ebc c632 bcbb 5838 d93b 40c8 46bb
00000380: 840e 453c 747d 1b3c d032 263c d4bc 2d3c
00000390: 0c98 7e3c 86a3 973c 959c 90bc f841 28bb
000003a0: b079 933c 6c85 0b3c 907d 243c ffa1 a4bc
000003b0: e815 083b 30d9 0cbb 15d4 50bc 64ff 7a3c
000003c0: d8dd 343c d8a8 59bb 8886 6abb c01e 163c
000003d0: c9cf 22bc 8c00 e73b 76ad 923c 6271 86bc
000003e0: 0043 c9b9 9e02 a93c 7cf1 733c e4ce d5bb
000003f0: 2c29 743c cab8 8dbc 5ce6 623c e428 463c
0.0038146656 0.018366802 -0.003884947 -0.010881237 -0.013140385 0.013248466 -0.0007533543 0.0061509926
0.00483948 -0.020028897 0.01585722 -0.013492189 -0.015345885 0.004519213 -0.004867878 -0.0024443008
-0.0052328445 0.01591064 -0.01970531 0.00012965873 -0.015337143 0.01815281 0.0066585746 -0.014041124
0.011485908 0.014786154 0.013655938 -0.00990337 0.006762089 0.010573249 0.0034302212 -0.005809528
0.019502852 0.0001755748 -0.007830513 -0.008030635 0.0019289255 0.0022061057 -0.0162748 -0.005188426
0.013041116 0.019940317 0.019064955 0.0065527298 0.009475907 -0.0012393016 -0.007099579 0.019367188
0.015100695 -0.0028088987 -0.017026857 0.009188125 -0.007802181 0.009107791 -0.003269134 -0.006546219
0.0015425459 0.0018205214 -0.012074279 -0.0006362479 0.013757627 0.004792152 -0.017770939 -0.018264454
-0.013668094 -0.012083596 0.01954325 0.019720964 -0.015480649 0.015458461 0.0101386495 -0.016216898
0.011646438 -0.007274122 0.01850719 0.0029019993 -0.0127977785 0.016082063 0.0024213698 0.0069719497
-0.0015984103 -0.0102786925 -0.008048863 -0.0049007162 -0.020506997 -0.011384137 8.5940585e-05 -0.011321943
0.015027862 -0.0152928075 -0.009571272 0.018920522 0.017485548 0.0033962317 -0.02103382 0.018777303
-0.010171184 0.01450412 -0.010326791 0.008272402 -0.0036988892 -0.01715376 0.0021594558 0.0011231992
0.011473481 0.015318345 -0.004826583 0.015509579 0.006421337 -0.019615538 -5.269982e-05 0.0051095374
-0.0007638633 -0.00716314 0.0035607945 -0.02106167 -0.020221695 -0.0037698 0.0020722393 -0.015391637
-0.012533684 0.008043848 0.017551083 0.0044744797 -0.01965024 0.018070437 -0.005199181 0.003907321
0.01224209 0.013312139 -0.013012399 0.015156403 0.013967585 -0.018647246 -0.014957584 -0.0029492471
0.012999933 0.016225338 0.0044596028 0.01968693 -0.013973519 -0.005856309 0.0136866495 -0.017070655
0.012391284 0.0011986122 0.01163926 0.00535322 -0.011427472 -0.0011054166 -0.012798254 -0.00081364624
0.014455121 0.011636667 -0.020268923 0.004174525 0.017575517 -0.0131387655 0.008096224 0.0043058526
0.010454543 -0.0012688544 0.01657508 -0.010787467 -0.009698459 -0.010659075 -0.017137637 -0.012834862
-0.00033846498 -0.01592476 0.019878488 0.015077695 0.015215896 0.013808094 0.0051507745 0.01114266
-0.0122474525 -0.018977365 -0.011774229 -0.017683825 -0.015910605 -0.008375558 0.0048932806 -0.005540248
-0.007475917 -0.004203789 -0.016821288 -0.017483743 -0.010151946 0.018167526 0.015560124 -0.013685206
0.01625884 0.020316947 0.017864328 -0.011313841 -0.017276864 -0.021025058 0.0076054204 -0.003447326
0.009716131 -0.0056615183 0.018671509 -0.009298614 -0.015622283 -0.0067593735 0.018835604 -0.01847111
0.0063850507 0.012520485 -0.003950106 0.0064096265 -0.019344209 -0.0050173067 -0.0057093576 0.011913538
-0.020062087 -0.0058660917 0.0020415708 0.020882506 -0.019361636 -0.0057433574 0.006629031 -0.003033176
0.012027387 0.00949036 0.010143951 0.010604102 0.0155391805 0.018510591 -0.01765279 -0.0025674086
0.018002361 0.008515697 0.010039702 -0.020096777 0.002076501 -0.0021491759 -0.012745877 0.015319679
0.01103922 -0.003321221 -0.0035785753 0.009162605 -0.009937235 0.0070496257 0.017904978 -0.016411487
-0.00038387626 0.02063113 0.014889117 -0.0065249074 0.014902394 -0.017300028 0.013848867 0.01209471

bias f4 [2]
00000000: 90c7 9c3c a830 80bc
0.019138128 -0.015648201

weight f4 [2, 2]
00000000: a121 fbbe 40e5 bfbe 70e0 033d 723a eb3e
-0.49049094 -0.3747959 0.032196462 0.45943028

bias f4 [2]
00000000: ce85 24bf 6a53 de3e
-0.6426667 0.43423015

weight f4 [1, 2]
00000000: ca22 8c3e a8fb 09bf
0.27370292 -0.5389962

weight_ih_l0 f4 [8, 16]
00000000: 95c4 79bd af6c 09bf 55de c43e ba3b 913e
00000010: 3105 6ebe 7f3d b53e d9f6 913e 6a9d 8dbf
00000020: c54d 06bd 5530 473f c166 a0bd a602 e437
00000030: 0914 bbbd fd4f bebf 3129 053f 09fb cabe
00000040: b38e 9fbf 32b4 673f 32df 39be f82a 08be
00000050: f452 2d3f 76c5 ce3e 280d cb3e 7856 4dbf
00000060: 554c c73e 9cc3 06be bb37 05be 5474 64bf
00000070: 62d9 c83e 1d73 7cbf 60a1 643e 31fd b33d
00000080: a9e6 9bbe 2db4 b8bd f2df 9fbe 280d 163f
00000090: 9cb5 3b3c 7c6f 03bf a258 06bf 0d5d 7e3f
000000a0: 8d51 32be b91b 85bf 148a 213e cc72 d5bd
000000b0: 48ab 5e3f 4772 af3e d26c cdbd d721 9ebe
000000c0: 5fc2 e33d af65 7d3e e72a e23e b3f3 02bf
000000d0: 88f3 92bf 9e4c be3e a604 1cbe e2c3 d03d
000000e0: ab39 6cbf 9580 4cbe 818c 97bd a088 18bc
000000f0: 3a2d 193f 1772 593d 5d16 a0bc f31e f6be
00000100: 6577 33bf 3b18 fd3d cc8b a8bc 30f1 89bf
00000110: 78a4 7e3f dbfd 133f 7532 4d3e 2ccf debe
00000120: 5e91 4dbe 70a7 c93e 742c 15bf 7a87 213f
00000130: 4c13 10bf db54 d53e e535 9d3f 2d99 093e
00000140: 20d3 da3e 756b d93e adfa b73d 62ff b0be
00000150: 879b b2be 26cc f33e 8733 98be dad4 b2be
00000160: 607e 24bf 4c45 b0be 7193 863f 766e 43bf
00000170: f39a ca3e 4c01 56bf a55b a5bf eb54 62bf
00000180: 301d 5c3f f61c 073f c22b b7bd 53f0 ec3c
00000190: e2a4 9dbe ea39 303f fc0a 273f 7414 d0bd
000001a0: bd55 d83e 6fd8 8f3e 713b b9be 97f0 69be
000001b0: 32a4 223e 3186 81bf 8938 dc3d 4edc 7e3d
000001c0: a956 25bf 9395 433f 2b9a 713e d32e 303e
000001d0: fb8e 9b3e 277c 5fbf f04a a43e d259 9cbe
000001e0: e0da fdbe b801 61bf 262b a0be fc3f 56bf
000001f0: b8ca 87bf 0f85 4ebf c7dd 7b3d ccf8 05bf
-0.06097849 -0.53681463 0.38450876 0.2836588 -0.23244168 0.3539848 0.28508642 -1.1063664
-0.03278901 0.77808124 -0.07832099 2.7180951e-05 -0.09134681 -1.486816 0.5201598 -0.3964465
-1.2465423 0.9050933 -0.18151549 -0.13297641 0.677047 0.40385026 0.39658475 -0.80210066
0.38925424 -0.13160557 -0.1300954 -0.8924 0.3922835 -0.9861315 0.22327185 0.08788527
-0.30449417 -0.09018741 -0.31225544 0.58613825 0.011456873 -0.51341987 -0.5247899 0.99360734
-0.17413922 -1.0399085 0.15775329 -0.104222864 0.86980104 0.34266874 -0.100305215 -0.30885193
0.11121058 0.2474582 0.44173357 -0.51153105 -1.148057 0.3716783 -0.15236148 0.10193612
-0.92275494 -0.19970925 -0.07399846 -0.009309918 0.59834635 0.05308732 -0.019541914 -0.48070487
-0.70104057 0.12358137 -0.020574473 -1.077673 0.9946971 0.5780923 0.20038779 -0.43517435
-0.20074984 0.39385557 -0.58270955 0.63097346 -0.56279445 0.41666302 1.2282072 0.13437338
0.427392 0.42464796 0.089833595 -0.34569842 -0.34884283 0.4761669 -0.29726812 -0.34928018
-0.6425533 -0.3442787 1.0513746 -0.76340425 0.39571342 -0.8359573 -1.2918593 -0.88410825
0.85982037 0.52778566 -0.08943893 0.02892319 -0.30789858 0.6883837 0.65251136 -0.10160151
0.42252913 0.28094813 -0.36178163 -0.22845684 0.15882948 -1.0119077 0.10752971 0.062221818
-0.6458536 0.7640011 0.23593967 0.17205362 0.30382523 -0.87298816 0.32088423 -0.30537277
-0.4958105 -0.8789325 -0.3128292 -0.8369138 -1.060874 -0.8067178 0.0614908 -0.5233276

weight_hh_l0 f4 [8, 2]
00000000: 9e5d 783f f54b 7b3e 3354 5a3f 0456 173e
00000010: 40c2 ac3d 103d 0a3c 458e 773f e57e 85bf
00000020: 4452 4b3f e610 56bf d203 adbf 44e5 2e3e
00000030: 41f4 2f3f 91a3 b5bf 77a4 4a3f 90ba 81bf
0.9701785 0.24540694 0.8528473 0.14778906 0.08435488 0.00843741 0.9670146 -1.042935
0.794224 -0.83619535 -1.3516791 0.17079645 0.68732077 -1.4190542 0.79157203 -1.0135059

bias_ih_l0 f4 [8]
00000000: c945 93bf b51a 063f 33a0 b13f 36b6 263d
00000010: cda2 67be ae93 25bf 299c 113f d1aa f73e
-1.1505672 0.523845 1.3877014 0.040701114 -0.22620697 -0.64678466 0.56878906 0.4837251

bias_hh_l0 f4 [8]
00000000: 148b 74be 3e93 d6be d242 e23f 5e4d 8fbe
00000010: ff34 6b3e ae89 523e bd85 bf3f 397d 233f
-0.23881179 -0.41909212 1.7676642 -0.27988714 0.22969435 0.20560333 1.4962689 0.6386295

weight_ih_l0_reverse f4 [8, 16]
00000000: 7751 00bf 6fb6 493f e966 ebbd 4877 7cbf
00000010: 6774 c3be c6b9 dbbf a080 08bf 4657 f7bf
00000020: cb84 8f3e 4b8b 093e 74d6 673f e71d e2bd
00000030: 22b9 40bf 8f6b 27bf 996e 313f 00b9 91bf
00000040: 2c62 e63f 3e45 d7bf 03ee 5dbf 580a 52be
00000050: e9d8 f8be d110 c2be 3819 82bf 4732 41bf
00000060: d5f2 5e3f 8d19 7d3f e371 bd3e b308 15bd
00000070: e480 b0be 9a2b e0bf 727d 47be d7fd d8bf
00000080: 540e 553b a854 b0be 7e3c f2be effd 5d3f
00000090: ad36 063e f568 0d3e d402 4bbf 7aee ad3e
000000a0: b06a e0be fd6b c6be 0623 173e d573 073f
000000b0: 31ed 8fbf 0d24 dd3f 35ad aebe 3a53 8e3f
000000c0: f583 63bd 0232 0abe b981 643e 4a59 c7be
000000d0: fea2 16be 278a 65bf 27f3 c3be a74b a5be
000000e0: 1610 41be ecfb 5dbf 9314 27bf 76ab 903d
000000f0: 8365 103e 4755 ee3e 593d 8ebf 4e31 cf3c
00000100: 2605 3abe 2fbb f5bf 1b01 bc3e db9f 81bf
00000110: cf0a 943e 0b03 9ebc 26aa b03e 3501 5e3f
00000120: 17d6 87bf c66d b43e b6bd 763d 037f cd3e
00000130: ee58 43bf 7fb4 0ebe 1d9b 753f 1bbb 2f3e
00000140: e316 09bf f3a2 1b3f 9c60 193f a800 e9bf
00000150: b896 d93c 51c0 48bf 4134 b4bf 5378 d3be
00000160: a84f 3ebe 70cf 42bf 7258 38bf 4eda a13e
00000170: 1a9d 36bf 61cb 3cbe 9408 b23f de22 673d
00000180: 31ad b6bf 12b9 45bf 394e 5abe a366 87bf
00000190: f6f4 f6be a83b 9fbf 153e 87be a92c ffbe
000001a0: 9162 7ebe 412d 8ebf 1936 7ebf d97e 3dbe
000001b0: 4443 29bf 2cdd 263c 58fa af3b 7894 973e
000001c0: c896 1dbf 4004 05bf 5e17 49bf f272 6abf
000001d0: d9f3 0d3f 4339 c3be cde8 243e a30d b33d
000001e0: 2977 903e b990 55be 16f0 023f 8c76 34bf
000001f0: 73cb ffbe 444d 0bbf ead2 383f 2faa 26bf
-0.50124305 0.78793997 -0.11494238 -0.9861951 -0.38174745 -1.7166069 -0.53321266 -1.9323509
0.28031 0.13432042 0.90561604 -0.1104086 -0.7528249 -0.65398496 0.69309384 -1.1384583
1.799871 -1.6818006 -0.866913 -0.20511758 -0.4860299 -0.37903455 -1.0163946 -0.7546734
0.8708928 0.9886711 0.3700095 -0.03638525 -0.34473336 -1.7513306 -0.19481447 -1.6952466
0.003250976 -0.34439588 -0.47311777 0.86715597 0.13106795 0.13809569 -0.7930119 0.33971006
-0.43831396 -0.38754264 0.14759454 0.5291112 -1.124426 1.7276627 -0.3411652 1.1119149
-0.055545766 -0.13495639 0.2231511 -0.3893531 -0.14710614 -0.8966393 -0.38271448 -0.3228428
-0.18853793 -0.8671253 -0.6526577 0.070639536 0.14101224 0.46549436 -1.1112472 0.025292065
-0.18166026 -1.9197749 0.36719593 -1.0126909 0.28914496 -0.01928856 0.34504813 0.8672059
-1.061221 0.3524 0.060239516 0.40135965 -0.7630757 -0.13936041 0.9593981 0.17161219
-0.5355055 0.60795516 0.5991304 -1.8203325 0.026561126 -0.7841845 -1.4078447 -0.41302738
-0.18585074 -0.76097775 -0.72009957 0.31611866 -0.7133347 -0.18436958 1.3908868 0.056429736
-1.4271604 -0.7723552 -0.21318902 -1.0578197 -0.48233765 -1.2440081 -0.26414552 -0.4983876
-0.24842288 -1.110756 -0.99301296 -0.1850542 -0.66118264 0.010184567 0.0053704195 0.2960546
-0.615582 -0.5195961 -0.7855128 -0.9158164 0.55450207 -0.38129625 0.16104431 0.087428354
0.28215912 -0.20855989 0.5114759 -0.7049339 -0.49959907 -0.54414773 0.7219683 -0.6510343

weight_hh_l0_reverse f4 [8, 2]
00000000: 5251 2cc0 0e3d a8be a2c6 10c0 eb3a 34c0
00000010: 9808 a63f e468 7e3f e97c 03c0 48e8 2dbf
00000020: 48bd fd3f 001a 0340 f56c 2b40 3585 da3e
00000030: 7299 a53f 1cda 853f 6c67 3cbf 54ac c83e
-2.6924634 -0.3285908 -2.2621236 -2.816096 1.2971373 0.993788 -2.054499 -0.6793256
1.9823389 2.048462 2.6785252 0.42679754 1.2937453 1.0457187 -0.7359531 0.39193976

bias_ih_l0_reverse f4 [8]
00000000: 0c6e c6bf 7652 443e e658 aa3f 3d36 0a40
00000010: f9bc 213f 157a 11bd abad b73e 4864 2e3f
-1.5502334 0.19172081 1.330838 2.1595604 0.63178974 -0.035516817 0.35874686 0.6812177

bias_hh_l0_reverse f4 [8]
00000000: da1b 64bf d84b 33bf 9f16 b03f cfcb dd3f
00000010: a509 333e 6417 a23e 75fc c83e a297 d63f
-0.89105 -0.70037603 1.3756903 1.7327822 0.17484148 0.3165847 0.3925511 1.6765025

weight_ih_l1 f4 [8, 4]
00000000: e7f2 c3be 7436 f6bd 57a1 0f40 3b53 303f
00000010: 7d6d 5bbf 8c36 1d3e 6cca 5dbf 3f5d e6bf
00000020: 38a4 9d3f 2d61 91bf f3d8 13bf bd8e 3fbf
00000030: 7c87 97be adb0 843f ec09 dabe f93c 2abf
00000040: c8f1 92bf 434d 7b3e 18bc ddbf 949d 10c0
00000050: ba91 7dbf f1b9 7f3f 9fea 96bf fda0 77bf
00000060: eb41 103e b3a9 d1bf 85ca 93bf 52ed 273f
00000070: 91a0 6bbf 66fd 813e 1052 65be 95e7 b6bf
-0.38271257 -0.12022105 2.2442224 0.68877 -0.8571394 0.15352839 -0.86636996 -1.7997206
1.231574 -1.1357781 -0.57752913 -0.74827176 -0.29595554 1.0366417 -0.42585695 -0.66499287
-1.1480036 0.24541192 -1.7323027 -2.2596178 -0.99050486 0.998931 -1.1790351 -0.96730024
0.14087646 -1.6379913 -1.1546179 0.655965 -0.9204188 0.2538864 -0.22394586 -1.4289423

weight_hh_l1 f4 [8, 2]
00000000: 0829 6e3f 42b9 1d3e e292 263f 02d2 b33e
00000010: cfc0 56bf 6a2b 573e 982f 803d 9818 353e
00000020: 3c2d 40be 64c8 833f 1e83 3b3e 3db1 4c3f
00000030: ccb7 213e 39e7 bdbe e3e1 d43e 2908 483f
0.9303136 0.15402701 0.65067875 0.3512116 -0.8388795 0.21012655 0.06259078 0.17685163
-0.18767256 1.0295529 0.18311736 0.79957944 0.15792769 -0.3709047 0.41578588 0.7813745

bias_ih_l1 f4 [8]
00000000: c703 7dbf 987a 40bf 885c 343f b54b 0b3f
00000010: dbe3 143f 1082 d73d 3e3a b3be cc0d f33e
-0.9883389 -0.75187063 0.7045369 0.54412395 0.5816018 0.10522854 -0.35005373 0.47471464

bias_hh_l1 f4 [8]
00000000: c826 fcbe 08b7 adbf c14e 883f c0e4 083f
00000010: e0a7 fc3e 56a0 8fbc bcaf 103f f77e 81bd
-0.49248338 -1.3571482 1.0649034 0.53474045 0.49346828 -0.017532509 0.5651815 -0.06323045

weight_ih_l1_reverse f4 [8, 4]
00000000: 5685 92bf 0e4e dcbe 9d45 e83d 9c1c e4be
00000010: 2e5c bebd 6a59 c3be 3e0f 913e 8af7 a9bf
00000020: 8dd8 43bf 6891 c9be ecbe acbf 18a3 e33e
00000030: ca74 aa3e 40cc 6bbf 2a92 bb3f 822e 4a3f
00000040: fce6 d63f 09b2 c9bf 5a0e c03f 69a6 0640
00000050: e068 db3f b51f 10c0 f2b6 833f aba2 d73f
00000060: 67ef 62bd 4241 b13d 8b47 7c3e 6f37 c8be
00000070: 245e afbf 8461 463f ed17 773e e5a1 56bf
-1.1446941 -0.430283 0.11341403 -0.44553077 -0.09294926 -0.38154155 0.2833194 -1.3278668
-0.76502305 -0.3936875 -1.3495765 0.44460368 0.33292228 -0.92108536 1.4653981 0.78977215
1.6789241 -1.5757457 1.500438 2.1039069 1.714138 -2.2519352 1.0290205 1.6846517
-0.055404093 0.08655025 0.24636666 -0.39104792 -1.3700604 0.7749255 0.2413022 -0.8384078

weight_hh_l1_reverse f4 [8, 2]
00000000: a983 d63e 9695 fabe 4c62 2cbf c981 ac3d
00000010: 9e08 18bf 2942 2fbf 3dd7 afbe c272 babf
00000020: 5477 d0bd 009b c73e f52c 2e3f 4dc1 da3d
00000030: 70c4 8bbf 7151 98bf 41bb 393f 4bc4 d63e
0.41897324 -0.4894225 -0.6733749 0.08423192 -0.5938815 -0.6846033 -0.343439 -1.4566271
-0.1017901 0.38985443 0.6803735 0.106814004 -1.0919323 -1.1899854 0.7255135 0.41946635

bias_ih_l1_reverse f4 [8]
00000000: e32b 94bd f0e9 31bf bfd9 4d3e 8b9f 583f
00000010: 4262 213e 8477 84bf 619b 303d 7e8c 2bbe
-0.07234933 -0.69497585 0.20102595 0.84618443 0.15760139 -1.0348973 0.04311693 -0.16752812

bias_hh_l1_reverse f4 [8]
00000000: 8c5e 38bf 6703 6cbe b049 083f a917 c43e
00000010: 2f75 093f bc10 05be ce04 023f f045 3f3f
-0.7201927 -0.23048173 0.5323744 0.382993 0.5369443 -0.12994665 0.5078858 0.7471609

weight_ih_l2 f4 [8, 4]
00000000: 33a6 0e3f 4c1c 233d bdb5 e7be 5ea1 2c3f
00000010: 744c 193f 6b58 d3be 0dff f13e 60be e0be
00000020: 4675 363f 1107 403e a425 b63d 71c1 b03c
00000030: 7734 f8be 4c6c 233e 7915 473c 36dc 2bbf
00000040: b0da 033f a875 983e 18d4 9d3e 0ffa cfbd
00000050: d43e 123f 144a bf3e c8ee 03be 56c7 16bf
00000060: 0a6c 253f ab1b 333f b963 2a3f 4f9d 2c3f
00000070: 8733 733e 4104 adbe 6738 003f b501 16be
0.5572235 0.039821908 -0.45255843 0.67433727 0.59882283 -0.41278395 0.472649 -0.43895245
0.71272695 0.18752696 0.08893898 0.021576615 -0.48477527 0.1595928 0.012151116 -0.6713289
0.51505566 0.29777265 0.30825877 -0.10155117 0.5712712 0.37361205 -0.12884057 -0.5889791
0.6461798 0.6996409 0.66558415 0.67427534 0.23750125 -0.33792308 0.50086063 -0.14649089

weight_hh_l2 f4 [8, 2]
00000000: e0a1 22bf e4aa e53e 9779 2e3f fb8e d53e
00000010: 5e30 8abe e0e1 1e3e f555 1a3f 066a 843e
00000020: 9387 aabe 0a8c bf3d fd5c dc3e 720e 053e
00000030: beae 883e dacc f23e b4b3 b63e 1a4e 9e3e
-0.6352825 0.44856942 0.6815428 0.41710648 -0.26990026 0.15515852 0.6028741 0.2586214
-0.3330656 0.09352882 0.43039694 0.12993792 0.26695818 0.47421914 0.35683978 0.30918962

bias_ih_l2 f4 [8]
00000000: 97f0 f03e 7ab4 193f 9351 bdbd 566d 053f
00000010: 71e5 c6be 78a9 c23e a704 41bf f42d 86be
0.47058555 0.6004101 -0.09244075 0.5211996 -0.38846925 0.3801992 -0.75397724 -0.26206934

bias_hh_l2 f4 [8]
00000000: 93f6 683e efda eabe 8a48 413e 4ddf f3be
00000010: 4bd3 533d 8410 0b3e abad 37be 9aa6 d83d
0.2275031 -0.45870158 0.18875328 -0.47631302 0.051715177 0.13580519 -0.17937343 0.10578652

weight_ih_l2_reverse f4 [8, 4]
00000000: d6af fabf 973f 5c3f 466f c6bf 9f25 6f3f
00000010: efc3 103f 8216 983e 8c50 05bf 5b11 8e3e
00000020: 5517 e4bf 8a07 16c0 c20b bd3f cd9d 913f
00000030: ec4c 863e 7c72 a53e 2a03 913d d45d 03bf
00000040: daa7 dbbf 5266 b5bf 0fe6 cd3f 7ca6 d63e
00000050: 95f8 013f f86a 743f 921c 6abd aa73 fcbf
00000060: eef9 48be 2afa 2abf 6084 0d3f 583d 1cbe
00000070: 070e 1bbe abfd 543f 937f 46bf 17be a9bc
-1.9584911 0.8603453 -1.5502708 0.9341678 0.5654897 0.29704672 -0.5207603 0.27747616
-1.781962 -2.3442101 1.4769213 1.1376282 0.26230562 0.32313907 0.070806816 -0.51315045
-1.7160599 -1.4171851 1.6085833 0.41923892 0.5076993 0.9547572 -0.057156153 -1.9722798
-0.1962659 -0.6678797 0.55280113 -0.15257776 -0.1514207 0.83199567 -0.7753841 -0.020720525

weight_hh_l2_reverse f4 [8, 2]
00000000: dd9a e2bf ec90 f1be 33af a23e 05bd 443e
00000010: dd0f 39c0 d9a6 553f 53db 8a3f b161 f23e
00000020: cf7e b6bf 14c7 593e 0f56 92bf be02 a13e
00000030: b75e d13f cecb 2f3f 3784 2abc 19f5 b3be
-1.770351 -0.4718088 0.3177429 0.1921273 -2.8915932 0.83457714 1.0848182 0.47340158
-1.4257449 0.21267349 -1.1432513 0.31447405 1.635703 0.68670356 -0.010407499 -0.35147932

bias_ih_l2_reverse f4 [8]
00000000: 21c8 b3bf acd0 dbbe e8f5 0840 7de5 c33b
00000010: d1e4 1f3f d804 3c3f 41d2 0340 1178 143f
-1.404545 -0.42932642 2.140009 0.005978285 0.6245852 0.7344489 2.0597079 0.57995707

bias_hh_l2_reverse f4 [8]
00000000: 8a9a babf dd36 233f f6c6 0f40 3f8e 9f3e
00000010: 5424 c73e 3def b63e a5c2 543f 70e5 083f
-1.4578412 0.6375559 2.2465186 0.31163213 0.38894904 0.357294 0.83109504 0.53475094

weight f4 [1, 4]
00000000: 781b e33b 0f9c a93d b7ba d040 2b14 2dc0
0.0069307648 0.08281719 6.5227923 -2.704356
