cours/TP/tp2/checkpoints/best_dungeon_model.pt (torch, 9973 bytes, 11 tensors)

weight f4 [45, 1]
00000000: 0000 0000 3486 8c3f df55 af3f 957b 9e3f
00000010: 3799 1a40 d14e a73f bb24 253f 916f 39be
00000020: 15cd ff3d 8d4c 0cbf 8cd8 1b40 4fcf 23c0
00000030: e686 3dc0 e66e a6be ebe8 f93e 808f 74be
00000040: c94a 0b3f 5720 2840 34f5 1e3f 1875 ddbf
00000050: 2f8c 4b40 6919 39be d17a d2bf 37b9 1d3f
00000060: 844b 55bf dfec 80be e691 1ac0 ba06 2740
00000070: 3cc0 12c0 b194 2140 7ebf 36be bd08 2640
00000080: f546 f2bf ba9e 983d d553 9fbf 010f 953e
00000090: 2f5d e03e a53d 5840 024c 34be cfac 1ebe
000000a0: 9bc9 f3bf 88ba 2040 5bbd 60bb a01a 4540
000000b0: 563e f2bf
0.0 1.0978456 1.3698081 1.2381464 2.4156015 1.3070928 0.6450917 -0.18108965
0.12490288 -0.5480431 2.435092 -2.559528 -2.9613585 -0.32506484 0.48810515 -0.23882866
0.5441099 2.6269739 0.620929 -1.7301359 3.1804311 -0.180761 -1.644373 0.6161074
-0.8331835 -0.25180718 -2.415155 2.6097856 -2.292983 2.5247004 -0.17846486 2.5942833
-1.8927904 0.0745215 -1.2447459 0.2911301 0.43821093 3.3787625 -0.1760712 -0.15495609
-1.90459 2.511385 -0.0034292552 3.07975 -1.8925273

weight f4 [1, 140]
00000000: e2dc 17bc 75c9 57bd 89f4 6b3d dd82 f63c
00000010: 232b 10bd 94e6 23bd 28d1 7ebd 48d8 4e3d
00000020: 06fa 90bd ec75 393d 8774 db3b d90a 74bd
00000030: b375 9f3d 589a 8fbd fca2 e5bb 6fbc 303d
00000040: 3750 94bc e09d 64bc 7287 a4ba 12a6 743c
00000050: bb3e 36bd 9235 11bd a0d1 19bd bd4e f63c
00000060: 0a93 9e3d bca6 d9bc edec 0d3d b700 803d
00000070: ac16 85bd 89b8 8abd 50ae 9abd b186 6d3c
00000080: d6eb 433d c3bb 233c 2c03 e3bc 9c3b 783d
00000090: 439b a0bd 1e8f 3a3d 8ea4 93bd e5fe f43a
000000a0: 1a96 8d3d c023 453d de7e d13c fae4 88bd
000000b0: 5aa5 9a3d 9e42 af3b ec90 7b3c 6caf 23ba
000000c0: 3c86 0bbd 7135 52bd 7dd5 933d b7e2 583d
000000d0: f991 903d b395 4dbd 1c5e 543c 745d 6bbc
000000e0: 3f87 6b3d a79c 133d 6fb2 0c3d c354 6abd
000000f0: bdad 8a3d 3b15 cebb f11b 333d 3bbf 91bd
00000100: d645 e9bb c595 b3bc f6a7 84bd 8dd0 943d
00000110: a421 0fbd 58cf acbc 2ffd 15bd aeeb a8bd
00000120: b427 a4bd 4b51 d83c fd10 5f3d aa74 49bd
00000130: 5383 42bd ad3e 64bd c025 853d c9c9 43bc
00000140: c24c fbbc 0e3e 20bd 6fb3 b43c 359b 5e3d
00000150: a05c 883d 2352 283d 107b b3bb dbe9 b53b
00000160: 0479 a5bd f51b 963c 9814 503c 8663 61bd
00000170: d34c 3ebd 3ab3 913d 6e4c 99bd 2041 283d
00000180: f563 6dbc c0cb a73d 4297 88bd c82a 99bc
00000190: cc0c 85bd 3264 aebc 9ea8 e8bc d7d3 bd3c
000001a0: ff28 d2bb 63dd a4bd e996 1cbd e951 ee3b
000001b0: 110f 5b3d d92c 49bd 0a33 583c c2c5 0b3d
000001c0: ddf4 97bc 624b 0bbd ee2b 17bd 83f4 2c3d
000001d0: 5db2 66bc 4a6b ed3c e44e 4f3d 8730 4fb9
000001e0: a41d 993d 0428 ab3d 14cc a7bd b155 d7bc
000001f0: a908 aabd 8a2f 5d3d a63e 9d3d aaa9 54bd
00000200: 2799 b33c 52d6 d93b 9142 f6bc b555 06bd
00000210: 9b6d 833d 04cd 893d 3c64 b63c aec4 14bb
00000220: bca2 45bd 9a4e 403d 7c49 91bc d8bd 2a3d
-0.009268971 -0.05268236 0.057606254 0.030091697 -0.03519739 -0.04001482 -0.062211186 0.05049923
-0.07078938 0.045278475 0.0066972408 -0.059580658 0.07786121 -0.070118606 -0.0070079546 0.043148454
-0.018104656 -0.013953656 -0.0012552573 0.014932172 -0.04449342 -0.03545148 -0.03755343 0.030066842
0.07742889 -0.026568763 0.03464978 0.06250136 -0.06498465 -0.067734785 -0.07552779 0.014497445
0.047832333 0.009993496 -0.027711473 0.060603723 -0.07842114 0.045546643 -0.07209121 0.0018691687
0.06913395 0.048129797 0.02557319 -0.06684299 0.075510696 0.0053485176 0.015354376 -0.00062440964
-0.034063563 -0.051320497 0.07218454 0.052950587 0.07059092 -0.050191592 0.012961891 -0.014365543
0.057502028 0.036038067 0.034349855 -0.05720974 0.06771419 -0.006289152 0.04372782 -0.071165524
-0.007118921 -0.021922002 -0.064773485 0.072663404 -0.03494419 -0.021094963 -0.036618408 -0.08248077
-0.08015385 0.026405951 0.05445956 -0.049183525 -0.04748852 -0.055723835 0.06501341 -0.011949965
-0.03067625 -0.03912168 0.022058217 0.054347236 0.06658292 0.041093957 -0.0054773167 0.0055515594
-0.080797225 0.018323878 0.012700222 -0.055026554 -0.046459984 0.07114263 -0.07485281 0.041077733
-0.014489164 0.08193159 -0.06669475 -0.018697158 -0.064965814 -0.021288011 -0.028400715 0.023172302
-0.0064135785 -0.08050039 -0.038229857 0.007272948 0.053481165 -0.049115036 0.013195762 0.034124143
-0.018549377 -0.034007438 -0.03690713 0.042225372 -0.014080611 0.028981823 0.050612345 -0.00019759136
0.074763566 0.08357242 -0.08193222 -0.026285978 -0.08302433 0.054000415 0.07677965 -0.051919617
0.021923615 0.0066478634 -0.030061038 -0.03279658 0.0641739 0.06728557 0.022264592 -0.0022700238
-0.0482509 0.04694996 -0.017735235 0.041684955

weight_ih_l0 f4 [4, 1]
00000000: 4a0d 04bf f0bb 7ebf 1cad b2be 207e e93d
-0.5158278 -0.9950552 -0.34897697 0.114010096

weight_hh_l0 f4 [4, 1]
00000000: b798 6ebe d2b8 3bbe 48ad dbbe 6438 34bf
-0.23300444 -0.18332222 -0.4290564 -0.70398545

bias_ih_l0 f4 [4]
00000000: 9539 733f 3368 423e 3edd 433f 35b3 48bf
0.9500974 0.18985061 0.76509464 -0.7839845

bias_hh_l0 f4 [4]
00000000: f7ed 363f 5dfc 0a3f 5f5d 8dbd 6104 64bf
0.71456856 0.54291326 -0.06902575 -0.8906918

weight_ih_l0_reverse f4 [4, 1]
00000000: aecb db40 16a2 3740 948c 27c0 39b4 1f3e
6.8686132 2.869268 -2.6179552 0.15596093

weight_hh_l0_reverse f4 [4, 1]
00000000: 8cce 843f 384a 03c0 1b8d c8bd caea 8740
1.0375533 -2.051405 -0.09792539 4.247411

bias_ih_l0_reverse f4 [4]
00000000: 84f2 b6bf 4b8f 9640 3b28 3840 a44b 47bf
-1.429276 4.704992 2.8774555 -0.77849793

bias_hh_l0_reverse f4 [4]
00000000: f4f8 2cc0 4681 6440 485a 5540 75eb 44bf
-2.702695 3.5703902 3.3336353 -0.7692178

weight f4 [1, 2]
00000000: 99ec 323d 6411 ea40
0.04368267 7.314623
