cours/TP/tp2/checkpoints/best_model.pt (torch, 15029 bytes, 25 tensors)

weight f4 [6, 8]
0	0x3c4872e3	0.012234422
1	0xbbcbbf98	-0.006217908
2	0x3c456097	0.012046955
3	0x3ca01b3c	0.019544236
4	0xbbd395a8	-0.0064570494
5	0x3b12191f	0.0022292805
6	0x3ce2a48f	0.027666358
7	0xbc75cb64	-0.015002105
8	0xbda6eafd	-0.08150289
9	0xbd211aa5	-0.03933205
10	0xbcacda73	-0.021100258
11	0xbc330f82	-0.01092899
12	0xbc99cb4a	-0.018773694
13	0x3cd13a20	0.025540411
14	0xbd252ba3	-0.04032482
15	0x3cbf65f6	0.023364048
16	0x3cc36133	0.02385006
17	0x3cb36b65	0.021901796
18	0x3bb3f2df	0.005491599
19	0x3c180d24	0.009280477
20	0xbcb48b71	-0.022039147
21	0xbc4d78c9	-0.012541004
22	0xbb372c17	-0.0027949864
23	0xbc79e55e	-0.015252439
24	0xbdac5ea1	-0.084164865
25	0xbd1b80f5	-0.03796478
26	0xbc82863b	-0.015933147
27	0xbbeb92ca	-0.0071891295
28	0xbcc7a700	-0.024371624
29	0x3cb942a6	0.022614788
30	0xbd271c7a	-0.04079864
31	0x3cdc96b5	0.026927331
32	0x3d1cedec	0.038312837
33	0x3cc8b8d1	0.02450219
34	0x3aa94939	0.0012915499
35	0xbbfa7d48	-0.007644329
36	0x3cb578e4	0.022152372
37	0xbc62f93a	-0.013853366
38	0xbbd43543	-0.006476076
39	0xbc8006bf	-0.015628217
40	0x3d113f5c	0.035460815
41	0x3baf0b20	0.0053419024
42	0xb95522dd	-0.0002032625
43	0xbb166f38	-0.0022954475
44	0x3c323e1d	0.010879067
45	0xbc04adae	-0.008098049
46	0x3c9d2f88	0.019187704
47	0xbb4186be	-0.0029529775

bias f4 [6]
0	0xb1347f69	-2.6265872e-09
1	0x33945fcb	6.909212e-08
2	0x325e8a5b	1.2953559e-08
3	0x30433284	7.1012374e-10
4	0xb15aa499	-3.1816738e-09
5	0xb170e297	-3.5053398e-09

weight f4 [6]
0	0x3d478f31	0.048720542
1	0x3de522db	0.11188289
2	0x3d50db64	0.050990477
3	0x3deb61a1	0.114932306
4	0x3d457240	0.04820466
5	0x3d134bc6	0.035960935

bias f4 [6]
0	0x3b13484b	0.002247351
1	0xba837e58	-0.001003216
2	0xbc0604e5	-0.008179878
3	0xbb063972	-0.0020481017
4	0x3befeb7f	0.0073217745
5	0x3ca855c6	0.020548712

running_mean f4 [6]
0	0x371e4d7a	9.435573e-06
1	0xba1d0342	-0.000598956
2	0xbab8e1f3	-0.0014105424
3	0xba7b7acd	-0.0009593189
4	0xb91e34f3	-0.0001508778
5	0x3ab3252a	0.0013667692

running_var f4 [6]
0	0x3abe6e91	0.0014528801
1	0x3c66131b	0.014042641
2	0x3b0e6ec1	0.0021733495
3	0x3c74a5b3	0.014932084
4	0x3b5348d1	0.0032239447
5	0x3b1cbce1	0.0023916292

weight f4 [6, 6]
0	0x3c77adf6	0.015117159
1	0xbd096c45	-0.03355052
2	0x3ca7e647	0.020495547
3	0xbd155341	-0.03645635
4	0xbc5046ba	-0.012712175
5	0x3be0eb2c	0.006863972
6	0x3c8e1daf	0.017348139
7	0xbceb2ade	-0.028706964
8	0x3c1c0b3f	0.009524166
9	0xbd09ebc2	-0.0336721
10	0x3c380483	0.011231544
11	0x3bb5f0e3	0.0055523976
12	0x3ad4c2d3	0.0016232379
13	0xbd4424c3	-0.04788662
14	0x3bbf3ede	0.005836352
15	0xbd5070a8	-0.050888687
16	0x3bc9da04	0.0061600227
17	0x3bdf44a4	0.0068136025
18	0x3c964fe1	0.018348636
19	0x3c50b9f8	0.012739651
20	0x3c2423ab	0.0100182695
21	0x3c92e219	0.017930077
22	0x3cba1466	0.022714805
23	0x3cbaa353	0.022782957
24	0xbb9874c5	-0.004652592
25	0xbd1631a7	-0.036668446
26	0xbc2a7ad7	-0.010405264
27	0xbd0eb91e	-0.03484451
28	0x3cbbf72a	0.022945005
29	0x3af0c596	0.0018369432
30	0x3b858c32	0.0040755505
31	0xbd487a06	-0.048944496
32	0x3bf1e711	0.0073822816
33	0xbd58d569	-0.0529379
34	0x3c1d3957	0.00959619
35	0x3b95cfcb	0.00457189

bias f4 [6]
0	0x35488ebd	7.471352e-07
1	0xb4fc7617	-4.702458e-07
2	0x341b6bdf	1.4474743e-07
3	0x3400287d	1.1935659e-07
4	0x359a24b4	1.1484576e-06
5	0xb4fbf190	-4.6928153e-07

weight f4 [6]
0	0x3dd28c15	0.10280625
1	0x3da61048	0.08108574
2	0x3df55069	0.11978228
3	0x3d9360b6	0.071961805
4	0x3db83efc	0.08996388
5	0x3e068126	0.13135204

bias f4 [6]
0	0xbbcca8ca	-0.006245707
1	0x3c116150	0.008873299
2	0xbc262cb7	-0.010142497
3	0x3c1406cf	0.009034826
4	0xbc8cdf28	-0.017196253
5	0xbc6f8689	-0.014619478

running_mean f4 [6]
0	0xbb26fe37	-0.0025481114
1	0xbae1c375	-0.0017224388
2	0xbb82c509	-0.0039907736
3	0x3b4eb119	0.0031538664
4	0xbb417828	-0.0029521082
5	0xbb854e19	-0.004068148

running_var f4 [6]
0	0x37d9d713	2.5968568e-05
1	0x37c98dfc	2.4027184e-05
2	0x38584695	5.1564148e-05
3	0x3683b0ac	3.9246715e-06
4	0x37f0c637	2.870253e-05
5	0x38693b16	5.5606557e-05

weight f4 [6, 6]
0	0x3d70e6c4	0.058813825
1	0x3bf61549	0.0075098616
2	0xbc7726c3	-0.015084925
3	0xbc27a1fa	-0.010231489
4	0x3d665f38	0.05624315
5	0xbcc71697	-0.024302764
6	0xbca5b2bf	-0.020226834
7	0xbc52d646	-0.01286847
8	0x3dc22050	0.09478819
9	0xbc106171	-0.008812294
10	0xbc896982	-0.016773943
11	0xbcae16be	-0.021251079
12	0xbc82c06b	-0.015960893
13	0xbc4f049f	-0.012635379
14	0xbc87c57c	-0.01657366
15	0xbc079cc4	-0.008277122
16	0xbc657c36	-0.014006665
17	0x3dace562	0.08442189
18	0xbc3e5349	-0.011616536
19	0xbc13ba65	-0.009016608
20	0xbc99b4c5	-0.018762955
21	0xbbe2a2ef	-0.006916396
22	0xbc783ffc	-0.015151974
23	0x3da1db33	0.07903137
24	0x3d08b663	0.033377063
25	0x3cf05013	0.029335057
26	0x3ca60ead	0.02027067
27	0xbc917c40	-0.017759442
28	0x3cf04b1d	0.029332692
29	0xbc500927	-0.012697495
30	0x3c9abed6	0.018889826
31	0x3d4c6375	0.049899537
32	0x3c90d1e1	0.017678203
33	0xbcdf0e20	-0.027228415
34	0x3bfbd01a	0.0076847197
35	0x3bba1688	0.0056789555

bias f4 [6]
0	0xb51bb601	-5.800685e-07
1	0x349ba6a9	2.899226e-07
2	0x36832140	3.907975e-06
3	0xb48ef410	-2.662714e-07
4	0xb35b8840	-5.111383e-08
5	0x34a5a26a	3.0851817e-07

weight f4 [6]
0	0x3de69981	0.11259747
1	0x3e118970	0.14212584
2	0x3dfae015	0.122497715
3	0x3defe773	0.11714067
4	0x3dc39354	0.09549585
5	0x3dbdf145	0.09274534

bias f4 [6]
0	0x3d0fae46	0.03507831
1	0x3c74f3ea	0.014950732
2	0x3c7969de	0.015222995
3	0x3c8267d2	0.015918646
4	0x3d5c0def	0.053724226
5	0x3d66976f	0.056296762

running_mean f4 [6]
0	0x3abf7e50	0.0014609788
1	0x3a9bbab1	0.00118812
2	0x3a938370	0.0011254381
3	0x3a8bf982	0.0010679218
4	0x3b2367ac	0.002493362
5	0x3b28dbee	0.0025765854

running_var f4 [6]
0	0x368c4647	4.1805065e-06
1	0x36b307fe	5.335546e-06
2	0x36a4d315	4.912154e-06
3	0x368fc20a	4.284321e-06
4	0x37056f96	7.953398e-06
5	0x3728590c	1.0034313e-05

weight f4 [6, 6]
0	0xbd3e6f3c	-0.0464928
1	0xbd6a8d3d	-0.0572636
2	0xbd4a8289	-0.049440894
3	0xbd3424d5	-0.04398044
4	0xbd262721	-0.04056466
5	0xbd3873f6	-0.045032464
6	0xbd3665d3	-0.0445307
7	0xbd6257dc	-0.05525957
8	0xbd431f3c	-0.04763721
9	0xbd34ef2b	-0.0441734
10	0xbd280ca2	-0.041027673
11	0xbd371ae4	-0.04470338
12	0x3d1c244a	0.038120545
13	0x3d67d9e4	0.05660428
14	0x3d326a6a	0.043558516
15	0x3d1e89f0	0.038705766
16	0x3d211b43	0.03933264
17	0x3d0fe13a	0.035126902
18	0x3d236717	0.039893236
19	0x3d470d1f	0.048596498
20	0x3d2feba9	0.042949352
21	0x3d2f439d	0.04278909
22	0x3d13b6d1	0.03606302
23	0x3d11a07b	0.035553437
24	0x3d35ec30	0.0444147
25	0x3d53e715	0.05173405
26	0x3d3744af	0.044743236
27	0x3d350a10	0.04419905
28	0x3d1732b2	0.03691358
29	0x3d1537b9	0.036430094
30	0x3d20d026	0.039261006
31	0x3d61d3b0	0.05513352
32	0x3d30d476	0.04317137
33	0x3d280e6e	0.041029386
34	0x3d0aa40b	0.03384785
35	0x3d12d9ff	0.03585243

bias f4 [6]
0	0xb4b41e32	-3.3549583e-07
1	0xb501253e	-4.811044e-07
2	0xb240feb9	-1.1233788e-08
3	0x3485c914	2.4919484e-07
4	0x3405f355	1.2475114e-07
5	0x34c76d09	3.7145972e-07

weight f4 [6]
0	0x3ef27e7e	0.4736213
1	0x3ee8812c	0.4541105
2	0x3ec36012	0.38159233
3	0x3eb8463a	0.3599108
4	0x3ecb17ae	0.39666504
5	0x3ebc83f1	0.36819413

bias f4 [6]
0	0x3e8b721b	0.27235493
1	0x3e85f2ec	0.26161897
2	0x3eb1b911	0.34711507
3	0x3ea72b59	0.3265026
4	0x3eb7bf29	0.3588803
5	0x3eab27c5	0.3342878

running_mean f4 [6]
0	0xbc5679f7	-0.013090602
1	0xbc52dca0	-0.012869984
2	0x3c3e6e0e	0.011622919
3	0x3c3919b7	0.011297635
4	0x3c427fe6	0.011871314
5	0x3c3af6ea	0.011411408

running_var f4 [6]
0	0x391ccb72	0.00014953109
1	0x39178180	0.00014448725
2	0x38f828eb	0.00011833183
3	0x38e9b666	0.0001114428
4	0x3901210d	0.00012314711
5	0x38ee8f7b	0.0001137545

weight f4 [1, 6]
0	0xbf0aea75	-0.54264003
1	0xbf051957	-0.5199179
2	0x3f03f489	0.51545006
3	0x3ef85996	0.4850585
4	0x3f08a759	0.5338035
5	0x3efe6153	0.49683627
